src/rl/out_dir/models/exp69/action_net.pth (torch, 17911 bytes, 2 tensors)

weight f4 [8, 512]
00000000: 1739 f83c 65ba d4bc c12a e5bc af82 0dbd
00000010: 928a 833c b531 2e3c c261 9d3c be58 d4bc
00000020: 1f11 753b e755 cfbc e17b cf3b d35a 223d
00000030: f196 f3bc de18 2b3c dfeb 2fbd 4261 0b3d
00000040: cd3e afbc f752 1ebc 0652 e2bb ef22 4dbc
00000050: 4106 393d 58fa acbb 7ca9 2bbd 5078 67bb
00000060: 88db eebc ba39 193d c935 f03c 5848 393c
00000070: 7533 1b3d e382 483c e500 25bd 0fbe 04bc
00000080: 637b e0bc 6656 98bb 1d9a 173c 5df4 923c
00000090: ac95 aa3a 11d9 c03c 8b44 20bd 5da2 9e3b
000000a0: ec0a 6b3c 3a6c 82bc d575 163d 9c9f 1bbd
000000b0: 6705 3c3d d8e8 583c 9b75 b83a 914c 16bb
000000c0: 1b88 1dbd b01a 05bd d5db 35bd 0c9d 133d
000000d0: e741 21bc e9b0 7fbc e3f9 ce3b 600e 1abc
000000e0: 9226 acbc f661 173c c781 8bbc 6dac 0f3d
000000f0: ddab dcbc 8835 c6bc 548a 0e3d 9b84 f8ba
00000100: 098a 0e3d b8cc 373d f3be dcbc 5c12 50bb
00000110: 0072 023d 9c48 35bd 0ded f3bb 711c 083b
00000120: 441d 31bc d9f2 98bc 3328 cbbb 9907 19bd
00000130: 342a 173c 6ce8 083d 32eb 013d e535 143d
00000140: 8453 58bc d25b 253d 4426 283c 8d19 bebc
00000150: 660b 5c3a f384 9bba 07a9 05bc 0025 843c
00000160: 7045 9abc 4f57 9dbb 0c28 8c3c be79 b7bc
00000170: 1609 c9bc 7973 c53b c3af cd3c b095 c3bc
00000180: 74d9 91ba cc83 6d3c dc20 9fbc 550d 483b
00000190: 8c54 f23c b914 ad3c f7ba 83bc 1850 fc3c
000001a0: cd34 f13b 85c1 3dbd 562a 82bc 37bc 253d
000001b0: 584c 583c ebcc 383d 32f2 61bc e8cd 9c3c
000001c0: 99b0 e5bc e4e2 e4ba 2479 db3c aa45 f9bc
000001d0: 0d45 fabc 928d 2b3d cca3 323d 98f3 09bc
000001e0: c53d 1e3d 8f9b 84bc 470b 8f3c 28ee 33bd
000001f0: 1949 743c 5698 1d3d 7a17 503c 6bfe f53c
00000200: d85a b63c 921c e23c 2097 eabc 0cb6 b1bc
00000210: 8d7d 8fbb c3c8 373c 13ea c23b 9453 15ba
00000220: b225 a2bc e3b7 113d 44ae 333d 4dcb 01bd
00000230: 54f1 2bbd 24cc 28bd 9349 0ebd c442 bdbc
00000240: 2a23 e73c e225 16bd a532 2d3c dd01 c03c
00000250: 1550 af3c 34bd 283d 367b 0abd 5668 903c
00000260: 603f cbbc a96c 313d 108c 9d3c 1ccb 84ba
00000270: 2503 fd3c bcad 433b 6d07 e33c c9f7 cf3c
00000280: bbe8 89bc 911b e2bc 4b05 04bd ee18 16bd
00000290: 40d5 b2bc a139 bebc 5021 bebc eb0c e43b
000002a0: 23dd 1bbd 6bb1 5fbc dbab 173d 219b 863c
000002b0: 427e 0c3d 81a5 c6bc 42fe 9a39 b12f d83b
000002c0: 9591 9f3c f4a1 e53c 0cb7 043d 11cb 4ebc
000002d0: e84f 27bd 1bc8 b8bb 24c8 7dbc ecae b6bc
000002e0: a89d 04bd 0d9d 02bd 29c7 20bd 0410 23bb
000002f0: d528 07bd 1972 213d 97bd 653c 98d2 06bd
00000300: 8020 283d 65f8 d83c 84b2 a1bc 2027 15bd
00000310: c182 263d cccc 863b fc04 46bc a8d9 213d
00000320: 50c7 063c 685d e63c b5cc 26bc 9297 2b3d
00000330: ee59 f8bc 5aa6 b53b 6e33 8fbb 732f a3bc
00000340: cb17 453b ffa4 883c 0b21 03bd e95a 57bc
00000350: dde5 1f3b e7d1 febc a5af 8b3c 683f 54bc
00000360: d921 3dbd 189f 50bc 9705 ff3c 5b0c b1bc
00000370: 749a b53c 48b4 59bc 0d5f 5f3c 57ba 26bd
00000380: 85eb 8dbb eb4c f5bb d392 eb3a da4f 3a3d
00000390: 3138 003a c169 ef3c 3374 bfbb b8fc 15bd
000003a0: e37e bfbb 2e5d c0bb a5fe 2fbd 0f05 3d3c
000003b0: b636 8d3c 1f99 8abc 1f6e 1cbd c09c ca3c
000003c0: 1a5f ebbc f345 d9bc 1e08 0abc 00f5 a03c
000003d0: edf8 d9bc 3eb7 07bd c4d8 e03b 739a 7a3c
000003e0: c6e6 30bd fc4b 853c c0de 243d 3685 e63c
000003f0: 9873 053d eeb8 003d ed31 8b3c 824f 343d
0.03030066 -0.025967786 -0.027974488 -0.034548458 0.016057286 0.010631968 0.019211654 -0.025921222
0.0037394238 -0.025309516 0.006331906 0.039637398 -0.02973506 0.0104429405 -0.042949554 0.0340283
-0.02139225 -0.009663335 -0.0069067506 -0.012520536 0.04517198 -0.0052788667 -0.04190968 -0.0035319515
-0.029157415 0.037408568 0.029322522 0.011308752 0.03789087 0.012238237 -0.040284056 -0.008101954
-0.027402585 -0.0046489714 0.009253052 0.017938787 0.0013014576 0.023541005 -0.039127868 0.0048411326
0.014345866 -0.015920747 0.036733467 -0.037994012 0.04590359 0.013239108 0.0014073135 -0.002293382
-0.03845988 -0.032496154 -0.0443991 0.036038443 -0.0098423725 -0.0156061435 0.00631641 -0.009402841
-0.021014486 0.009239664 -0.017029656 0.035076547 -0.02693742 -0.024195448 0.03479989 -0.0018960418
0.03479961 0.04487297 -0.02694652 -0.0031749224 0.031847 -0.0442587 -0.00744403 0.0020768906
-0.0108102 -0.018670486 -0.0061998605 -0.03736076 0.009226371 0.03342478 0.03171844 0.03618421
-0.013203505 0.04037077 0.0102630295 -0.023205543 0.00083940325 -0.0011865183 -0.008157975 0.016130924
-0.018831939 -0.0048016678 0.01710894 -0.022396918 -0.024540465 0.0060257283 0.025108224 -0.023875087
-0.0011127428 0.014496755 -0.019424848 0.0030525525 0.02958133 0.021128045 -0.016080363 0.03079991
0.0073610307 -0.046327133 -0.015889328 0.0404627 0.0132017955 0.0451173 -0.013790654 0.019141153
-0.02803831 -0.0017462638 0.026791163 -0.030428726 -0.030550504 0.04188306 0.04361324 -0.008419894
0.038633127 -0.016187457 0.017461432 -0.043928295 0.014910006 0.038475357 0.01270091 0.030028543
0.022260115 0.027601514 -0.028636515 -0.021693252 -0.0043789805 0.011217299 0.005948314 -0.0005696353
-0.019793365 0.03557576 0.043867365 -0.031688023 -0.041978195 -0.04121031 -0.034738135 -0.023103125
0.02821501 -0.03665722 0.010571157 0.023438388 0.02140049 0.041196063 -0.03380891 0.017627876
-0.024810493 0.043316517 0.019231826 -0.0010131332 0.030885288 0.0029858192 0.027713502 0.025386708
-0.016834607 -0.027601035 -0.03223161 -0.03664487 -0.021830201 -0.023220839 -0.023209244 0.0069595478
-0.03805269 -0.01365314 0.03702913 0.016431393 0.034300096 -0.02424884 0.00029562606 0.006597482
0.019478599 0.028031327 0.03240113 -0.012621657 -0.04084769 -0.005639089 -0.015489612 -0.022300206
-0.032376915 -0.031888057 -0.039252434 -0.0024881372 -0.032997925 0.039415453 0.0140222525 -0.03291568
0.04104662 0.026485631 -0.019738443 -0.036414266 0.04065204 0.004113769 -0.012086149 0.039514214
0.008226231 0.028120711 -0.010180642 0.041892596 -0.03031632 0.0055435123 -0.0043701446 -0.019920086
0.0030073996 0.016680239 -0.032013934 -0.013144233 0.0024398484 -0.031105949 0.017051527 -0.01295457
-0.046174858 -0.012733243 0.031130595 -0.021612337 0.022168376 -0.013287611 0.013633502 -0.04070505
-0.0043310546 -0.007485976 0.0017972834 0.04548631 0.00048911857 0.029225232 -0.0058427094 -0.036617965
-0.0058439835 -0.005870483 -0.042967457 0.011536851 0.017238002 -0.016918717 -0.038190957 0.024732947
-0.028731871 -0.026522612 -0.008424787 0.019648075 -0.026607955 -0.033133738 0.006861778 0.015295613
-0.043188833 0.016271584 0.040251493 0.028139692 0.032580942 0.031426363 0.01699158 0.044021137

bias f4 [8]
00000000: 93f3 1dbd ab43 053c f9d5 57bd dc31 65bd
00000010: f5bf 39bc e5b8 9a3c 33c1 573c 0bd9 8e3c
-0.03856237 0.008133809 -0.052694295 -0.055955753 -0.01133727 0.018886993 0.013168621 0.017437479
