src/rl/out_dir/models/exp69/value_net.pth (torch, 3575 bytes, 1 tensors)

weight f4 [1, 512]
0	0xbebd2f70	-0.36950254
1	0x3e9cc82d	0.30621472
2	0xbf67467b	-0.9034192
3	0xbf69f292	-0.9138576
4	0x3eb03bae	0.34420532
5	0x3eb99bd5	0.36251703
6	0x3e9e94b3	0.30972824
7	0x3f17258a	0.59041655
8	0xbec3dd24	-0.38254654
9	0x3eb6d397	0.35708305
10	0xbec2c2c7	-0.38039228
11	0xbf73f7f0	-0.953002
12	0xbf74251b	-0.9536912
13	0xbf95858d	-1.1681381
14	0xbf4f90e9	-0.8108049
15	0xbf6ba8ac	-0.9205425
16	0xbed581fb	-0.4170073
17	0xbebd4859	-0.3696926
18	0x3ebabfab	0.36474356
19	0xbf3f245b	-0.7466485
20	0xbf47a6ca	-0.77988875
21	0xbf3a26b7	-0.72715324
22	0xbf42c954	-0.7608845
23	0xbeb723b0	-0.35769415
24	0x3eb4958d	0.35270348
25	0xbf611e51	-0.87936884
26	0xbed1d3b6	-0.40981835
27	0xbf04a989	-0.5182119
28	0xbf4945f8	-0.7862239
29	0xbeb32911	-0.3499227
30	0x3eea3c98	0.45749354
31	0xbeafc3b9	-0.34329012
32	0xbf4291bd	-0.7600363
33	0x3eb02d9a	0.3440979
34	0xbf9eb511	-1.2399007
35	0x3eb40b4e	0.35164875
36	0xbec09047	-0.37610075
37	0xbf6754b1	-0.90363604
38	0xbf9ae984	-1.2102513
39	0xbeb380e7	-0.35059282
40	0x3eb61c4c	0.35568464
41	0xbf00824c	-0.5019882
42	0xbf82557a	-1.0182335
43	0x3eb21cf8	0.34787726
44	0xbf1b45f8	-0.6065364
45	0xbecd7ccb	-0.40134272
46	0x3eb3c0f1	0.3510814
47	0x3f124ec8	0.5715146
48	0x3eb03c8b	0.3442119
49	0xbf8514c3	-1.0396961
50	0xbf58b22b	-0.8464686
51	0xbf4dc0b3	-0.8037216
52	0x3e90514c	0.28187025
53	0xbeee7aea	-0.4657815
54	0x3eb220d6	0.34790677
55	0xbf630616	-0.8868116
56	0xbf084039	-0.53222996
57	0x3ea3ecc9	0.3201659
58	0x3ea2e275	0.31813398
59	0x3ecd9f6d	0.40160695
60	0xbebe4c92	-0.37167794
61	0x3eaaad1d	0.333352
62	0x3eb23d55	0.34812418
63	0x3eba44f6	0.36380738
64	0x3ea2cd01	0.3179703
65	0xbfa382ef	-1.2774333
66	0x3eaf33f6	0.3421933
67	0xbf8a5417	-1.0806912
68	0xbf732251	-0.9497424
69	0x3eb7cf88	0.3590052
70	0xbec86e6e	-0.3914675
71	0x3eb197ab	0.34686026
72	0x3eb26fd5	0.34850946
73	0xbf8c047e	-1.0938871
74	0x3eaac694	0.33354628
75	0xbf75d331	-0.9602538
76	0x3f342fdd	0.70385534
77	0x3f2ebf87	0.68261
78	0x3eaf676f	0.342586
79	0xbebb6da0	-0.36607075
80	0x3ed48689	0.41508892
81	0xbf5c451b	-0.86042947
82	0x3ebc2b8b	0.3675197
83	0x3eaf18f9	0.3419874
84	0xbf69b7fe	-0.91296375
85	0x3ea8ae30	0.32945395
86	0x3eac7864	0.336856
87	0xbf82f018	-1.0229521
88	0x3ea28d5a	0.31748468
89	0xbee59dfc	-0.44847095
90	0x3f3d3ec2	0.73923886
91	0xbf8497ce	-1.0358827
92	0x3ea536c7	0.32268354
93	0xbec06e57	-0.37584183
94	0x3ea17efe	0.315422
95	0xbeb1b1b4	-0.3470589
96	0x3ead6d36	0.33872384
97	0xbf663616	-0.8992628
98	0xbf87c4b3	-1.0606903
99	0xbec11d78	-0.37717795
100	0x3ea8c193	0.32960185
101	0x3eb66a18	0.35627818
102	0x3eb385b6	0.3506295
103	0xbf87dc61	-1.0614129
104	0x3ea3e5eb	0.3201135
105	0x3ea9e243	0.33180436
106	0xbf512b9c	-0.8170717
107	0xbf6eb0c5	-0.9323848
108	0x3ef7a20e	0.48365825
109	0x3ea69a54	0.32539618
110	0xbec11c6c	-0.37716997
111	0xbf84ebba	-1.0384438
112	0x3eab75cd	0.33488312
113	0xbed29650	-0.41130304
114	0xbebf40f0	-0.3735423
115	0xbeb20085	-0.3476602
116	0x3eaad662	0.33366686
117	0xbf2a79ec	-0.6659229
118	0xbf8169f1	-1.0110456
119	0xbebe086b	-0.37115797
120	0xbf746e83	-0.9548113
121	0xbf392296	-0.723184
122	0xbf64be18	-0.8935256
123	0x3ed4e092	0.41577584
124	0x3f02d762	0.511099
125	0x3eb69d90	0.35667086
126	0xbec117ef	-0.37713572
127	0xbf082841	-0.5318642
128	0xbf7c19d0	-0.98476887
129	0x3ead4d6e	0.33848137
130	0xbebc7c00	-0.36813354
131	0x3ebcbd9e	0.36863416
132	0x3eb848a3	0.35992917
133	0x3ea46b3a	0.32113057
134	0xbf963e27	-1.1737717
135	0xbeacb7b5	-0.33733907
136	0x3f1332e5	0.57499534
137	0x3ea0e6aa	0.31425983
138	0xbf459232	-0.771762
139	0xbf26355d	-0.64925176
140	0x3f29807a	0.66211665
141	0x3ec2c011	0.3803716
142	0x3ed5a5d2	0.41728073
143	0xbf4ffd2e	-0.81245697
144	0xbf910c0b	-1.13318
145	0xbf734559	-0.9502769
146	0x3eab0df6	0.3340909
147	0xbebbf87c	-0.36713016
148	0x3eabf1a5	0.33582798
149	0x3eb1e360	0.34743786
150	0x3e98ef9d	0.2987031
151	0x3eae998f	0.3410153
152	0xbebb009d	-0.36523905
153	0xbebf7815	-0.37396303
154	0xbf711f90	-0.94188786
155	0xbf722d7f	-0.9460067
156	0xbf24a3ee	-0.64312637
157	0xbf678dd2	-0.90450776
158	0xbf6fb6a0	-0.9363804
159	0xbebb090c	-0.3653034
160	0x3f309050	0.68970203
161	0x3ea4cb92	0.32186562
162	0xbec0ade4	-0.37632668
163	0x3f3cbe81	0.73728186
164	0xbf8f6df8	-1.1205435
165	0xbf4df270	-0.80448055
166	0x3ebc8bc5	0.36825386
167	0xbf31b2e8	-0.69413614
168	0xbf40113e	-0.7502631
169	0xbf8b9ed2	-1.0907843
170	0xbf77309b	-0.9655854
171	0xbf8c3cdc	-1.0956073
172	0xbf8285a2	-1.0197031
173	0xbef8e8d1	-0.48615125
174	0x3eb09529	0.344888
175	0x3f27870a	0.6544043
176	0xbeb560a4	-0.35425293
177	0x3eb809a5	0.35944858
178	0xbec50f76	-0.38488358
179	0x3ea6b9e8	0.3256371
180	0xbeb7d459	-0.35904196
181	0x3f33a8c1	0.70179373
182	0x3eaf3d82	0.34226614
183	0x3eaeddd9	0.3415363
184	0x3ea66ad2	0.32503372
185	0x3f486f42	0.78294766
186	0x3ea8243d	0.32840148
187	0x3eaf9349	0.34292057
188	0x3f4ae3ba	0.79253733
189	0x3eb7cf58	0.35900378
190	0xbf7acb63	-0.97966594
191	0xbf8a1ac0	-1.0789413
192	0x3ebd0a85	0.36922088
193	0xbf91958d	-1.1373764
194	0x3ea61ad4	0.32442343
195	0x3ea4ac49	0.32162693
196	0xbf21ccab	-0.63202924
197	0xbeea1824	-0.45721543
198	0x3eab57b1	0.3346534
199	0xbeb22d17	-0.34800026
200	0x3eb726c3	0.3577176
201	0xbf79d125	-0.97584754
202	0x3eb9377c	0.36175144
203	0xbfa07f5f	-1.253887
204	0x3ea19920	0.31562138
205	0x3e9dde1a	0.30833513
206	0xbeb2f81d	-0.3495492
207	0xbf7a6179	-0.9780498
208	0xbebf37d3	-0.37347278
209	0xbf0a8a08	-0.5411687
210	0xbf799bb2	-0.975032
211	0x3e9b0bc2	0.30282408
212	0xbf33c63a	-0.70224345
213	0x3eba617f	0.3640251
214	0xbf6e8d14	-0.9318402
215	0xbf4c0f44	-0.79710793
216	0xbf86a631	-1.0519468
217	0x3eb11c85	0.3459207
218	0x3eada24b	0.33912882
219	0x3ea3d4a4	0.3199817
220	0xbf7fa57b	-0.9986188
221	0xbf6a86b1	-0.9161177
222	0x3eaf882b	0.34283575
223	0x3edc46e2	0.4302283
224	0x3eb69d37	0.3566682
225	0xbf9c61ad	-1.2217308
226	0xbf65eb97	-0.89812607
227	0xbf84b899	-1.0368835
228	0xbf8499a2	-1.0359385
229	0x3e9e324a	0.30897743
230	0xbf70b04d	-0.94019014
231	0xbf78e6f6	-0.9722742
232	0x3ed991cc	0.42494047
233	0xbeafce77	-0.34337208
234	0xbf71164b	-0.9417464
235	0xbf94b741	-1.1618425
236	0xbeb53f7e	-0.35400003
237	0xbebac704	-0.36479962
238	0x3f3978a4	0.7244971
239	0x3ea29982	0.31757742
240	0x3e9dfd50	0.30857325
241	0xbf07530e	-0.52861106
242	0xbf9f5442	-1.2447588
243	0xbf432714	-0.76231503
244	0x3f289476	0.65851533
245	0xbf9aa9eb	-1.2083105
246	0x3ecc30b8	0.3988092
247	0xbf3f9edb	-0.7485177
248	0x3eb54a34	0.35408175
249	0x3eb6c408	0.35696435
250	0xbeb562b6	-0.35426873
251	0xbf6a2b1e	-0.9147204
252	0x3ea5958d	0.3234066
253	0x3f1dadc9	0.615933
254	0x3f18d640	0.5970192
255	0xbeccbd32	-0.39988095
