src/rl/out_dir/models/exp74/action_net.pth (torch, 83573 bytes, 2 tensors)

weight f4 [40, 512]
00000000: b141 b73c 55ab a3bc ad7c a33d aa4e 0abc
00000010: 26bc 123d 9810 06bd e027 adbd 01ee ea3c
00000020: 52a4 92bd 6e44 fb3b 9154 343d a039 ba3c
00000030: f8d1 123b d3ed 27bc 379a d0bd edd0 2fbc
00000040: 5f4b 633c 1f26 f23c 862d 3d3d 79ac be3c
00000050: 7898 713d 402a 0abd d7b6 63bc d217 fb3d
00000060: 5f89 253d 42f5 893d e1d7 4b3d 9ac7 0bbb
00000070: 1824 013e f12c 06bd 922d 46bc d5bb 573d
00000080: 4987 d0bc 2e29 3e3d 48f8 cb3c 3699 f2bb
00000090: 3688 103d b3c6 93bc 3df4 c13c 4915 b8bc
000000a0: a213 3d3c c2af 0f3e 1cf6 d0bc 4a1c 493d
000000b0: 8ba7 8cbc 52b6 513d e8d4 8f3b 19f0 973c
000000c0: e09c 16bd d8c9 67bd 3f0e 25bd 8667 8b3d
000000d0: 4246 c83c bd53 c43c 8fe0 103d 9a18 3c3d
000000e0: faa6 ebbc 5eaa c73c 97c0 9b3d 2d80 1fbc
000000f0: 9391 3dba c620 1dbd 9be8 de3c 85d4 b33d
00000100: 13e8 143d 75de 85bc ce9a b13c 6d90 6bbc
00000110: 2c30 bc3d 78b2 833d 59e4 89bd 7a3f 0c3d
00000120: ff1a 253c 5f1e a23b f32b 33bd b0f9 213d
00000130: 726e adbc 8a44 e33b 9bfa 443d 6799 593d
00000140: c1ae 08bc bf13 b43c f658 6cbd 70ca 18bc
00000150: 2ef0 bebd 3c13 323a 39be adbc b91c 6abd
00000160: 86e9 3c3b 3019 423e c4c8 643d a449 533d
00000170: 720f 273d bb54 a23d a78d 533d ef05 11bd
00000180: 27c8 2dbd 51e5 283d 03bf a03c 1bcb 033d
00000190: d8c3 d93d 46be f1bb 2da1 c63c 47c8 843c
000001a0: ed50 85bc 6517 363d 8a3f 04bd 31d0 08bd
000001b0: f423 733c c099 2a3d e4c0 453d 29c9 88bd
000001c0: c9f6 1ebc 3a15 0a3d 6296 913d 3b51 edbd
000001d0: 65ad cfbc 0341 c7bc 1cd9 063d 4e6f 9d3d
000001e0: 649e 55bc efd4 ba3d 12db b43d 06f8 d33c
000001f0: afaa 4d3c b42e 9b3c cc58 8b3d 9b6d 263c
00000200: babf 103c 56b9 fc3d e64a 5a3d f1aa 1dbd
00000210: 2925 18bd 8755 073d 09c6 2bbd af9d 08bd
00000220: b07d 0bbe 33bb a1bc 04f7 3e3d 0b9e 0a3b
00000230: 2445 543d b680 6b3c 42f3 5abc 790a a03d
00000240: bcf0 053e 6cfd 1fbd 215a 00bd 0f8f debb
00000250: adf8 763d 034d 86bd 5fbf ba3c 3ded 1cbd
00000260: d1a8 85bd 4e1e 313c 2a0f 94bc 5927 f63d
00000270: bf61 0b3e 00ab b8bd c536 4e3b cabe c83d
00000280: f3c8 1e3d 05f2 c13d 4df8 c3bc c531 38b9
00000290: aae9 e7bb 4c36 b2bc 68d0 2bbd 5729 25bd
000002a0: cc8a 443c 4de3 de3b 3b2b 7d3d 0e5b fdbc
000002b0: 24ea 013d 67f9 c2bc 0f14 77bd bb27 2a3d
000002c0: f051 e23d 651e 28bc b7d4 413d 299b 0bbd
000002d0: 12eb 353d b995 98bc a512 5b3b 87d5 21bd
000002e0: 4374 a5bc 6b6b 88bb d839 77bd 4cff 78bd
000002f0: 151a 4f3d 1124 1f3d a25c 0bbb 577a fa3c
00000300: 1d42 c23c 33b4 a53d ad84 7f3c dd69 5ebd
00000310: 5760 253d 018d 8d3d 259a da3d e86d fb3c
00000320: d534 453d c1db 07bc c704 163b 0d39 f93d
00000330: f170 ed3a 116a f53b 11f7 0c3d 4093 ae3c
00000340: f976 36bd 60ff be3d a65f c23d e257 633d
00000350: 5c91 0b3d 3dfb b2bb fe73 b2bc 91c4 cdbc
00000360: 1ce3 be3c bfb1 0bbd 7894 afbc 19a8 433d
00000370: 5660 303d 9401 05bd fe06 d83c 50d5 53bb
00000380: 4930 97bd 1811 f43c 9c72 2ebd d101 973c
00000390: 97b0 5f3d fb79 e1b9 a84e 93bd 8eca 5e3c
000003a0: d888 b23d 804e c73c 8427 55bd 1769 29bd
000003b0: a099 1fbc bb7d c13c 1e80 743d 2d8b 5c3d
000003c0: 7ef7 fbbc 27f8 d3bb 41be 72bc c914 183e
000003d0: a269 8a3a b18a 6f3d ad1e 8c3c 6ea5 3bbd
000003e0: 2cdc 933c 694f 2abd b154 e0bc a06c 7f3b
000003f0: fe7f a03d cbcc c33d b925 23bd ac66 5cbc
0.022370191 -0.019979158 0.079827644 -0.008441607 0.035823964 -0.03273067 -0.08454871 0.028677942
-0.07160248 0.0076680696 0.04402596 0.022732556 0.0022402983 -0.010249573 -0.10185664 -0.010730964
0.01387295 0.029559193 0.046185993 0.0232756 0.058983296 -0.0337317 -0.013898573 0.12260403
0.04041421 0.06736232 0.049766425 -0.0021328689 0.12611425 -0.032757703 -0.012095826 0.052669365
-0.025455134 0.04642599 0.024898663 -0.007403518 0.03528615 -0.018039083 0.023676032 -0.022471087
0.011540325 0.1403189 -0.02550798 0.049099244 -0.017169734 0.051199265 0.004389394 0.018547105
-0.0367707 -0.056588978 -0.04029679 0.06806855 0.024447564 0.02396571 0.035370406 0.0459219
-0.028766144 0.02437323 0.07605093 -0.009735149 -0.000723147 -0.038361333 0.027210524 0.08780769
0.036354136 -0.016341427 0.021680262 -0.0143776955 0.091888756 0.064305246 -0.06733007 0.034240223
0.010077237 0.004947468 -0.043743085 0.03954476 -0.021170828 0.0069356607 0.04809056 0.05312481
-0.008342446 0.021982072 -0.057702027 -0.009325609 -0.093231544 0.0006793027 -0.02120887 -0.0571563
0.0028825714 0.18954921 0.055855528 0.0515839 0.040786214 0.07926317 0.051648762 -0.03540605
-0.04242721 0.04123432 0.019622331 0.03217612 0.10633057 -0.0073774187 0.024246776 0.01620878
-0.01627394 0.044455905 -0.032287158 -0.03340167 0.014840115 0.041650534 0.048279658 -0.06678993
-0.009702393 0.03371165 0.07108761 -0.11587759 -0.025351236 -0.024322992 0.032921895 0.07687245
-0.013038252 0.09122645 0.08830847 0.025875103 0.012552901 0.018943168 0.06804046 0.010157968
0.008834774 0.123400375 0.053294085 -0.0384931 -0.037144814 0.03304055 -0.041936908 -0.033353504
-0.13622165 -0.019742584 0.04662229 0.002115133 0.05182375 0.014373949 -0.013363661 0.078144975
0.13080114 -0.03906004 -0.031335954 -0.0067919563 0.06029575 -0.065576576 0.022796331 -0.038312186
-0.0652634 0.010810448 -0.018073637 0.12019224 0.13611506 -0.09016991 0.003146575 0.09802015
0.03876586 0.0946999 -0.02392211 -0.00017566148 -0.0070774155 -0.021754406 -0.0419468 -0.040322628
0.011995982 0.0068019987 0.061808806 -0.030927207 0.031717435 -0.023800565 -0.060321864 0.041541796
0.110507846 -0.010261153 0.047322 -0.03408352 0.044413634 -0.01862608 0.003342786 -0.039510276
-0.02019704 -0.004163196 -0.0603579 -0.060790345 0.050561983 0.038852755 -0.002126493 0.030575914
0.023713166 0.08091011 0.015595597 -0.054300178 0.04037508 0.0691166 0.10673932 0.030692056
0.048146088 -0.0082921395 0.002289103 0.12169085 0.0018115324 0.0074894507 0.03441531 0.021310449
-0.044547055 0.09326053 0.094909 0.055503733 0.034074172 -0.005462079 -0.021783825 -0.025118144
0.023301654 -0.03410506 -0.0214331 0.047767732 0.043060623 -0.03247221 0.026370522 -0.003232319
-0.073822565 0.029793307 -0.04258977 0.018433483 0.05461177 -0.00043006227 -0.07192737 0.0135980975
0.08717507 0.024329424 -0.05203964 -0.041359987 -0.009741217 0.023619523 0.059692495 0.053843666
-0.030757662 -0.006468791 -0.014815868 0.14851679 0.0010560045 0.058481876 0.017104471 -0.045812063
0.018049322 -0.041579638 -0.027384134 0.0038974658 0.078369126 0.095605455 -0.039830897 -0.013452213

bias f4 [40]
00000000: 8508 353d e55e 36be a227 b23d e2fd b4bd
00000010: 8da2 b33d c34c 92bd 70c3 9ebd c34e a7bd
00000020: 896f 943c 4963 4a3d 6c3b cabd 5311 6f3d
00000030: e6df 47bd 4149 fd3d 72d0 613d 0100 dc3d
00000040: 6ef5 353b 590a 753b bde2 713c 6138 3d3c
00000050: bb71 cfbd ed9a 503e 484e 513d cb3b a6bd
00000060: 3476 453d 9a33 84bd f5e8 113e 276e ac3c
00000070: 1133 2a3b e505 ae3c e2a7 d5bd e18a 4bbd
00000080: ff9f a03a f798 ba3d 8284 15bb 9d2f 133d
00000090: 7bce 84bd 50bc eb3c cb90 56bd 073d 38bd
0.044197578 -0.17809637 0.086989656 -0.08837487 0.087712385 -0.071435474 -0.077521205 -0.081693195
0.01811959 0.049411092 -0.09874615 0.05836613 -0.04879751 0.12367488 0.05513043 0.10742188
0.0027764696 0.00373902 0.014763531 0.011549086 -0.10129114 0.203716 0.051100045 -0.08116873
0.04820843 -0.06455155 0.14249022 0.021048618 0.002597038 0.021243045 -0.10432412 -0.049692992
0.0012254714 0.09111207 -0.0022814577 0.03593408 -0.064846955 0.028776318 -0.05238418 -0.044980075
