src/rl/out_dir/models/exp74/value_net.pth (torch, 3573 bytes, 1 tensors)

weight f4 [1, 512]
000000 85 b5 63 be 17 52 ad 3d 96 d1 ef 3c 33 57 a7 3d
       -0.22237213 0.08462923 0.029274743 0.08170929
000010 da 06 01 3e c7 0b 9e 3d 00 c6 06 3e 0a 79 85 3b
       0.1260027 0.0771709 0.13161469 0.004073267
000020 53 6e 1c 3e 56 b4 eb 3d 0a ff 46 be b0 e5 d2 be
       0.1527646 0.11509006 -0.19433227 -0.41190863
000030 b1 80 5b bd d6 90 2d 3e 72 63 69 be c9 1a eb be
       -0.053589527 0.16949782 -0.22791842 -0.45918873
000040 f5 a6 96 3d b0 31 c2 be 86 cf 15 3e a7 59 ae 3c
       0.07356063 -0.37928534 0.14629945 0.021282984
000050 50 48 92 be 13 2c 9b 3d 38 74 0e be 60 ec 92 bd
       -0.28570795 0.07576766 -0.13911521 -0.07173991
000060 69 13 42 3e 9e 1c 7d bc ed 63 43 3e 4c ca 22 be
       0.18952717 -0.015448717 0.19081087 -0.15897483
000070 22 64 40 be 3c 49 5b be db 21 ff bd c3 c7 ef 3d
       -0.18788198 -0.21414655 -0.12457629 0.117080234
000080 ec 8f b2 3e f6 91 2d 3e de e7 14 3e 00 04 8b 3d
       0.3487543 0.16950211 0.14541575 0.06787872
000090 4b 95 86 be 26 2b 0e bf a8 55 be bc ec e1 10 3e
       -0.26285776 -0.5553459 -0.023234203 0.14148682
0000a0 72 1e 02 3e c0 28 80 bd cf 8e de 3d 37 e6 c7 be
       0.12706926 -0.062577724 0.10867082 -0.39042827
0000b0 a3 1f 2e 3e d5 c6 08 be 15 51 10 3d 82 27 9b 3d
       0.17004256 -0.13357098 0.035233576 0.07575895
0000c0 76 b3 09 bd 42 53 e1 be e2 8f ec 3c d5 6c 09 3e
       -0.033618413 -0.44008833 0.028877202 0.13420422
0000d0 95 b0 ce 3a 37 07 b1 be 22 30 c6 3d 18 e9 91 bd
       0.0015769178 -0.34575817 0.09677149 -0.07124537
0000e0 f1 47 50 3e 0f 0d b1 3e ce 7d 2f 3e b6 6f 08 be
       0.20339943 0.34580275 0.17137834 -0.13323864
0000f0 d6 5b 9a 3d 1e d2 3e be e1 86 6c 3d 4f 97 96 ba
       0.075370476 -0.18634841 0.057745818 -0.0011489185
000100 a4 dd 0c bf af 13 1a bd 3a 3a 5d 3e b5 87 13 bc
       -0.55025697 -0.037616428 0.21604243 -0.009004523
000110 d5 24 af 3e 90 7b 9d bd 3c 8c 92 bd f7 18 3a 3d
       0.34207788 -0.07689583 -0.07155654 0.045433965
000120 94 b7 2a bf 5c 8f 50 3d cb f1 40 3d 1d ac df be
       -0.6668637 0.05091797 0.04710559 -0.43686
000130 27 f8 bc be b0 b8 5a be 46 d7 f1 3c d5 8e a3 bd
       -0.36908075 -0.21359515 0.029521596 -0.079862274
000140 de 23 58 3e 57 d5 7a 3d ab e1 65 3d a8 82 e9 bc
       0.21107432 0.061238613 0.056123417 -0.028504685
000150 75 5b 26 be 9c cc 7f be 75 1c 34 3d 33 c7 0d be
       -0.16245826 -0.24980396 0.04397245 -0.1384552
000160 6c f1 38 3e b8 1d 91 3d fe ea 28 be 90 82 ce be
       0.18060845 0.070857465 -0.16495892 -0.40333986
000170 34 47 85 be f4 00 1a bf 98 1c 1b 3e 04 0f 1e 3e
       -0.26030886 -0.60157704 0.15147626 0.15435416
000180 62 5a 5b be 2c dc f7 3d 37 2c 1b be aa 95 73 3e
       -0.21421197 0.12102541 -0.15153585 0.23787561
000190 0c e4 05 3e bd 22 0e 3e 0b 2e 14 3d bd 57 37 3e
       0.13075274 0.13880439 0.036176722 0.17904563
0001a0 b8 bd 18 3e 16 c1 9e bd 3f bc dc 3d 2f 3c 4f 3d
       0.14916122 -0.07751672 0.107780926 0.050594505
0001b0 b1 c1 d8 be 7d 65 48 be 44 c9 27 3e 3d 70 c7 ba
       -0.42335275 -0.19569965 0.1638537 -0.0015215945
0001c0 2f 29 ee 3d 8c 11 81 3e 4f f9 74 be ad 30 71 3d
       0.11628949 0.252087 -0.23923229 0.05888431
0001d0 47 cb 08 3e c1 8e 97 be 4a ad 98 be 3d d5 72 bd
       0.13358794 -0.296011 -0.2981971 -0.05928539
0001e0 d1 97 0b bf 31 ce 14 3e 4f 3b ea be de 69 bd 3b
       -0.5452853 0.14531781 -0.45748374 0.0057804426
0001f0 d0 f3 05 3e 94 42 00 bc 2a 22 7a be ef dd ab 3d
       0.13081288 -0.007828373 -0.24427095 0.0839194
000200 38 cf 2d 3e 70 d2 93 3c 5c 45 e4 be f4 c8 f0 bc
       0.16973579 0.01804468 -0.44584167 -0.029392697
000210 64 6f 8b 3d d4 05 61 3e 6e 6c 25 be 40 b3 e2 3d
       0.068083555 0.2197488 -0.16154644 0.110693455
000220 cd 79 66 3e 6c f9 64 3e 7e be 4f be 42 84 e6 bd
       0.22507401 0.22360772 -0.20287511 -0.11255695
000230 ec 7a 34 3e 3f 29 17 3e 51 13 e0 be 67 c2 df bc
       0.17625016 0.14761828 -0.43764737 -0.027314378
000240 c1 33 67 3d 25 3f b9 3e 00 97 52 be bf ae 95 bd
       0.05644584 0.36180988 -0.20565414 -0.07308721
000250 4e 41 36 3e 5f 21 bb 3d 19 2c 24 be c7 e5 a9 bd
       0.1779835 0.091372244 -0.16032447 -0.0829578
000260 89 ad a8 be 1b 11 0a be 42 91 d9 be 90 24 fe bc
       -0.32944897 -0.13483088 -0.42493635 -0.031023294
000270 3d 31 15 bf bd d4 9a bd 3e e0 1b 3e b1 bd bb 3b
       -0.58278257 -0.07560108 0.1522226 0.0057294
000280 10 35 d8 be 2b 37 0c 3e 40 1b 28 be 55 5e ee be
       -0.42227983 0.1369292 -0.16416645 -0.46556345
000290 82 54 a2 3e e9 33 99 be a3 50 db bd b8 cb 76 be
       0.317051 -0.29922417 -0.107087396 -0.2410115
0002a0 a5 c6 97 3d bc 76 99 3e 40 ab 84 be 0a 18 20 3e
       0.07410935 0.299734 -0.25911903 0.1563417
0002b0 14 bc 33 be e5 a5 0e 3e 02 b3 65 be 1d 1c 8e 3d
       -0.17552215 0.13930471 -0.22431567 0.06938956
0002c0 2e 27 7c 3d 51 a7 47 3d 49 0f d5 3d 91 10 4a 3e
       0.061560802 0.04874355 0.10403306 0.19732882
0002d0 2b 97 84 bd 8d 1e e1 be 32 44 03 3d 76 d4 6d 3d
       -0.064741455 -0.4396862 0.032047458 0.058063947
0002e0 bd 0c 22 3d 2c 13 0f 3e 22 46 a4 be 14 52 fd bd
       0.03956293 0.13972157 -0.32084757 -0.12369171
0002f0 13 f0 3e 3d d5 89 8e 3e 6c 96 1b 3e f5 c2 e7 3d
       0.04661567 0.27839532 0.151941 0.11316482
000300 40 ea 8e 3d d3 d7 2e 3e 32 73 fe bc 31 bc 4a 3e
       0.069782734 0.17074518 -0.031060789 0.19798352
000310 6e 41 62 3d c9 b9 9c 3d 4c ca f5 bd 46 d9 9e be
       0.05523818 0.07652623 -0.12001476 -0.3102514
000320 b6 72 64 3e 46 22 a9 3e ee ef 07 be c9 80 46 be
       0.22309384 0.3303396 -0.1327512 -0.19385065
000330 6e ae e0 be 5e bc d1 be d1 c5 d9 3d 28 c5 90 3e
       -0.4388308 -0.40964025 0.106334336 0.28275418
000340 41 64 a8 3d 0d 0b 4c 3e 7a cb 83 bd b2 01 4b 3e
       0.08222247 0.1992609 -0.064352944 0.19824865
000350 4d de b5 3d 8b 8b da 3d be 58 2f 3e ac 31 87 be
       0.08880291 0.10671147 0.17123696 -0.26405084
000360 c8 04 7c 3e d2 c3 55 3e 34 a8 85 3e 0a 53 af 3d
       0.24611199 0.20875481 0.2610489 0.0856076
000370 7c f4 98 3d 13 ef 3a 3d 8d 83 e3 be db e3 eb 3d
       0.07468507 0.045638155 -0.44436303 0.11518069
000380 51 91 58 3e fe 63 26 be 8a 0e 6a 3e e2 b3 73 bd
       0.21149184 -0.16249081 0.22857109 -0.05949772
000390 7c 85 bb 3d 16 42 5c 3e 61 db af be 5c cb a6 be
       0.091563195 0.21509585 -0.3434706 -0.32577026
0003a0 f2 7b 20 3e e6 f3 8b 3e 5f 3d 66 be a2 70 c1 be
       0.15672281 0.27334517 -0.22484349 -0.37781245
0003b0 6d cb a2 3d 7c 0a 0e bd 83 f2 59 be af f0 69 3e
       0.07948957 -0.034677967 -0.21283917 0.2284572
0003c0 97 84 c2 3e 63 02 df be 02 a5 6c 3e bc 3b 61 be
       0.37991783 -0.43556508 0.2310982 -0.21995443
0003d0 d6 a8 94 bd dd 7e 54 be b7 00 0d be 54 02 53 3e
       -0.072587654 -0.2075152 -0.13769804 0.20606357
0003e0 17 fa 84 3e 52 ab b0 bd 74 cd 14 3e 4b 08 de be
       0.25972053 -0.08626427 0.14531499 -0.43365702
0003f0 b0 05 15 3e c5 0b 8a 3e de 5e 78 3d 4d aa 9a 3d
       0.14552951 0.26962104 0.060637347 0.075520135
