src/rl/out_dir/models/exp71/action_net.pth (torch, 17911 bytes, 2 tensors)

weight f4 [8, 512]
-0.2774516 0.025093306 0.05304963 0.09467304 0.068377264 0.24820247 0.084513105 0.15789692
-0.0062847054 0.1342765 -0.15819912 0.0072127376 -0.39728388 0.09472582 0.15612817 0.22837903
0.031430423 0.059065886 0.08339551 0.12258571 0.10451717 0.0011083722 -0.039274838 -0.20675842
-0.1468879 0.09379312 -0.10791113 0.21586066 -0.01784147 -0.021974327 0.026393965 0.14160588
-0.11113028 0.07557503 -0.06837038 0.18846296 0.20161395 0.09564536 0.10797383 -0.06434008
0.060070638 -0.12719212 -0.17992444 0.112645514 0.033588286 -0.07312205 0.13667615 -0.07566421
0.119969316 0.006331099 0.13361545 0.06553421 0.080512464 0.10914763 -0.27376786 0.02187661
0.026754854 -0.23721308 -0.112074286 -0.18454003 0.020075902 -0.0040055434 -0.0337407 0.10703671
0.012389031 -0.07899241 0.11343284 -0.2026899 -0.19007993 -0.1495476 0.1798532 0.040769484
0.07880448 0.044556156 -0.034922224 -0.08578621 -0.11916598 0.02400324 -0.18857455 -0.047750536
0.15355848 0.029646263 0.1377177 -0.114071086 0.107140146 0.16832554 0.17404592 -0.035096783
0.0013105929 0.23418365 -0.0063254824 -0.23244375 0.0033279236 -0.38061917 0.076119535 0.16082783
0.17173745 -0.02752238 0.15534848 0.27305862 0.040571857 0.20061135 -0.016328817 0.15975112
-0.27939633 0.30356726 0.012255756 -0.175811 0.13285153 0.1317986 0.16287991 -0.21964473
-0.070736654 -0.061831947 0.08053131 0.1933906 0.2455743 0.12427189 -0.0004100142 -0.11855978
0.21085347 0.2188132 0.019693827 -0.041241277 -0.2409018 -0.24443074 0.20531814 0.1290269
0.19172566 -0.21883406 0.013789967 0.083253145 0.16113684 -0.005314023 0.062514946 -0.19852649
0.09613555 -0.21828991 -0.071111724 -0.11324616 0.046150927 0.15976283 -0.032851186 0.23657748
-0.1597702 0.17305566 -0.100508176 -0.07525206 -0.14853004 0.03387179 -0.11492405 0.16514964
0.06660818 0.07428615 0.11597566 -0.21298374 0.013574739 0.07931179 -0.14577591 0.023480691
0.14269167 -0.11909965 0.029996313 0.056340955 0.11948764 0.22869653 0.16226858 0.3958175
-0.011002119 0.06716574 -0.016780477 0.23505417 -0.06843595 -0.09412247 0.0690589 0.17028731
-0.14961281 0.02122734 0.07992806 0.01777761 -0.044180416 -0.23374479 0.38536587 0.061282363
-0.29274827 -0.09137185 -0.26918942 0.29340658 -0.116557874 0.1507402 0.1479687 0.074427515
-0.11297604 0.34841755 0.08642703 0.19851646 0.034427725 0.07458293 0.12323395 -0.100143455
0.04191067 -0.31330967 0.11907033 0.005547032 0.17993133 -0.27495387 0.15742686 -0.13478813
-0.14928767 0.044465788 0.22861582 -0.015064873 0.17294553 -0.080376506 0.18240608 -0.12852784
0.055572145 0.21219653 0.0019380726 -0.0553264 -0.13059154 -0.03620335 -0.10926672 0.27848196
0.123619355 -0.03361204 0.12272574 -0.09254116 -0.029703783 0.063210934 -0.02153011 -0.053475756
-0.002391182 -0.036567587 0.07500198 -0.09979519 -0.009288393 -0.1763088 0.006084349 0.1418778
0.09073732 0.100155674 -0.0016396092 -0.11208552 0.07166763 0.15296978 -0.1671726 -0.0859928
0.17178094 0.16136111 0.15731056 -0.05645684 -0.28389594 0.06466567 0.07457264 0.05814159
00000000: 230e 8ebe 7a90 cd3c 924a 593d f0e3 c13d
00000010: 6109 8c3d ca28 7e3e 3515 ad3d bbaf 213e
00000020: eeef cdbb c77f 093e f3fe 21be d458 ec3b
00000030: cb68 cbbe 9cff c13d 10e0 1f3e 31dc 693e
00000040: 30bd 003d 12ef 713d 44cb aa3d 370e fb3d
00000050: 190d d63d cd46 913a a7de 20bd 7bb8 53be
00000060: c869 16be 9b16 c03d 8300 ddbd 940a 5d3e
00000070: 4628 92bc 8103 b4bc 2838 d83c 2201 113e
00000080: 4698 e3bd 15c7 9a3d c505 8cbd 6ffc 403e
00000090: e373 4e3e b7e1 c33d 6221 dd3d bbc4 83bd
000000a0: a10c 763d a73e 02be 1d3e 38be b1b2 e63d
000000b0: df93 093d 03c1 95bd d5f4 0b3e d6f5 9abd
000000c0: 79b2 f53d 1c75 cf3b 7dd2 083e cd36 863d
000000d0: b8e3 a43d cb88 df3d 4d2b 8cbe 9436 b33c
000000e0: ff2c db3c fce7 72be 3487 e5bd 10f8 3cbe
000000f0: 3876 a43c ef40 83bb b033 0abd 1036 db3d
00000100: 5dfb 4a3c c6c6 a1bd 7a4f e83d f18d 4fbe
00000110: 50a4 42be 0223 19be 702b 383e e7fd 263d
00000120: 3e64 a13d 8480 363d 9b0a 0fbd aeb0 afbd
00000130: 4b0d f4bd 71a2 c43c b019 41be 1196 43bd
00000140: 6f3e 1d3e b8dc f23c de05 0d3e 1a9e e9bd
00000150: 4b6c db3d 885d 2c3e 1839 323e a5c1 0fbd
00000160: 33c8 ab3a d7cd 6f3e fe45 cfbb bc05 6ebe
00000170: 4b19 5a3b 84e0 c2be 8fe4 9b3d 0db0 243e
00000180: f1db 2f3e 9d76 e1bc ac13 1f3e 57ce 8b3e
00000190: ad2e 263d 106d 4d3e 03c4 85bc cc95 233e
000001a0: 090d 8fbe 2b6d 9b3e 5ecc 483c cc07 34be
000001b0: 3b0a 083e 36f6 063e fec9 263e 8cea 60be
000001c0: 61de 90bd 7f43 7dbd 99ed a43d 2f08 463e
000001d0: d477 7b3e 4382 fe3d 2df7 d6b9 78cf f2bd
000001e0: f9e9 573e 9110 603e f354 a13c 9dec 28bd
000001f0: f6ae 76be 0d4c 7abe eb3e 523e a11f 043e
00000200: bb53 443e 0916 60be 50ef 613c a080 aa3d
00000210: 0e01 253e 4121 aebb d607 803d 874a 4bbe
00000220: b7e2 c43d 6487 5fbe 06a3 91bd 9aed e7bd
00000230: c108 3d3d de98 233e f78e 06bd 5e41 723e
00000240: cd9a 23be 8135 313e 3bd7 cdbd c11d 9abd
00000250: 4218 18be 25bd 0a3d 4d5d ebbd fd1c 293e
00000260: df69 883d 5623 983d a684 ed3d 6918 5abe
00000270: 9568 5e3c 386e a23d 4846 15be 945a c03c
00000280: c41d 123e 84ea f3bd d4ba f53c c6c5 663d
00000290: f0b5 f43d 6c2f 6a3e bc29 263e 97a8 ca3e
000002a0: 3b42 34bc 318e 893d 3677 89bc 0ab2 703e
000002b0: 2628 8cbd 48c3 c0bd c16e 8d3d cc5f 2e3e
000002c0: 1a34 19be f5e4 ad3c 53b1 a33d 5aa2 913c
000002d0: 86f6 34bd cb5a 6fbe ad4e c53e 3703 7b3d
000002e0: 1ae3 95be 2a21 bbbd 32d3 89be 6339 963e
000002f0: e5b5 eebd a45b 1a3e 1b85 173e 746d 983d
00000300: fb5f e7bd c963 b23e a800 b13d e647 4b3e
00000310: 1604 0d3d efbe 983d 1562 fc3d 0318 cdbd
00000320: 86aa 2b3d 206a a0be 25db f33d e1c3 b53b
00000330: eb3f 383e c1c6 8cbe 8234 213e e605 0abe
00000340: dede 18be c221 363d 441a 6a3e a8d2 76bc
00000350: a218 313e 709c a4bd a9c8 3a3e cd9c 03be
00000360: 9e9f 633d 0c4a 593e ed06 fe3a ef9d 62bd
00000370: cab9 05be f749 14bd 3bc7 dfbd 3095 8e3e
00000380: 252c fd3d c7ac 09bd a257 fb3d 3886 bdbd
00000390: 5955 f3bc bc74 813d ea5f b0bc 6509 5bbd
000003a0: 60b5 1cbb e5c7 15bd a39a 993d 6c61 ccbd
000003b0: 582e 18bc 4b8a 34be 385f c73b 6a48 113e
000003c0: 7dd4 b93d 6b1e cd3d 28e8 d6ba 188d e5bd
000003d0: 7ac6 923d 1ca4 1c3e 4b2f 2bbe fe1c b0bd
000003e0: 58e7 2f3e d93b 253e 0516 213e 4a3f 67bd
000003f0: cf5a 91be 6f6f 843d 8ab9 983d e025 6e3d

bias f4 [8]
-0.056323607 -0.027570786 0.008377017 -0.013696773 0.11520483 0.023910759 0.013253642 -0.057803854
00000000: 95b3 66bd 21dc e1bc c23f 093c 6e68 60bc
00000010: 83f0 eb3d 7fe0 c33c ce25 593c bcc3 6cbd
