src/rl/out_dir/models/exp71/value_net.pth (torch, 3575 bytes, 1 tensors)

weight f4 [1, 512]
00000000: 5238 a83e 86be bd3e 5021 003f 95cd bcbd
00000010: 4016 7dbe 07bd 3bbe b2e3 55bd e50b f6be
00000020: 319b 4c3e 0f22 d03e c8d4 1a3f d4c6 c1be
00000030: 9828 62bd 4fec 36be dbb3 833e f1df e1bd
00000040: c073 d03e 626b 273c 7408 aa3e e809 7c3e
00000050: eae5 c03e 8b66 673e d9d9 bcbe a16e fe3e
00000060: a11e 44be 1480 5fbd ea2b 513e 4ac5 bbbe
00000070: de7f 34be efeb ee3d 0348 11be 58f8 d8be
00000080: c208 06bf fe64 abbe 6ea8 08be 9feb e43e
00000090: c0e5 e73e 4dc1 fdbd 2a3c 223f 6274 0cbe
000000a0: 889c 26be d7d2 c43e e07f 713e 57ee cc3d
000000b0: cd2b d8be a463 bb3e 60e3 aabd bd40 d33d
000000c0: f63e 4ebe 0625 04be f7b7 f7bd d5f4 c83e
000000d0: 478e 56be a6ad 223e 20aa 25be c20f 94bd
000000e0: 8713 1e3f 9b97 ddbd 1b7b 953d 1301 a6bd
000000f0: 6d53 d73e e0aa abbd fada cf3e 1714 c73e
00000100: 9734 bbbd a820 bc3d 6d3c 81be 5067 d1bd
00000110: f890 d03e 18e3 21bf 8646 4fbd f9bd e2bd
00000120: 35c2 c1bd beef c83e d7e5 043f e9e8 dcbd
00000130: abe2 34be 4083 89bd fd97 bcbd 3dfa 8ebe
00000140: 3430 47be 0ac2 a0be 3261 12bf abc7 fbbd
00000150: 7d83 f8bd b03e 3bbe c958 5fbe b11e d33e
00000160: 228f 7b3e 896d 08be eb67 b53e bc39 853e
00000170: 0505 96bd 0929 ce3e f93a 09be 58d2 ce3e
00000180: c6dd 283f 92b8 fc3e 9e57 633e 2763 48be
00000190: 28bf 86be 4705 14be c17d 1c3e 5758 ddbd
000001a0: 0ca6 9ebd f3ff 0d3f e3f5 8ebd 0d5a 6b3e
000001b0: f810 14be 4e40 533e a944 d43e 5995 063e
000001c0: 064c 76bd c909 f4bd 1520 ed3e a3aa fb3e
000001d0: aa46 a33e 3be9 82be 2bf6 a63e 0cac d13e
000001e0: 6442 c83e 98ed 10be 54e8 f83e 705c cc3e
000001f0: 9fc9 3f3e 0be4 483d 7c4d edbd d4ac 1fbe
00000200: 4a45 863e bd3c 013f 9cd2 a8be fc6c 46be
00000210: ffc7 3f3d fa07 7a3e 7110 bc3e d02d 603e
00000220: 0abe b33e 2406 6fbe 5f60 5cbe 3a84 72be
00000230: 5e96 053f 2820 edbd 9026 8bbd 7d95 fa3e
00000240: be29 d83e fedd 4fbe 547c c83e 4937 b53e
00000250: f524 e43e 620e f6be 3451 bfbd 926e 02be
00000260: eeeb f9bd 1242 c83e d39f ccbd e49c 0ebe
00000270: 574f 033f ec94 0e3e a54a 8d3e f686 5c3e
00000280: 58dc 35be f781 ebbd 9d88 1a3e 0d56 75be
00000290: aacd 1ebe 14c1 55be b00e d7bd 5fc8 99be
000002a0: a47b c73e 6557 f23e de3a a43d 457f afbd
000002b0: a9a1 183f cd42 bbbd 5c2b c03e e72e abbd
000002c0: 0fa0 22be 4de7 46be 3872 aebd 0126 6fbe
000002d0: e368 e93e cabf 31be 705c 063f d9b5 b53e
000002e0: 7560 a5bd ba6b 0c3f 7f64 303e ca4e a3bd
000002f0: 8669 f53e 5406 5b3e 7f91 fe3e b9cf 8a3e
00000300: 77de 1fbe f976 103e 684e 06be c5f1 f4bd
00000310: 468d 94be ece2 cdbd 5d3e 4b3e 1e6d 33be
00000320: d610 e13d 6541 14be 0a82 e2bd 2e58 d83d
00000330: ac5d 753e 549a 25be 5c49 ee3e 8666 69be
00000340: e0c1 813e a210 a8bd 9e6d 32be efb3 eb3e
00000350: 277b a73e b83e babd 87c1 eb3d cc1e 4ebe
00000360: a916 a53e b23a ff3d 0b40 febd d54c 023e
00000370: 672c 8f3e 3c92 0e3e 5064 cf3d 4df1 c63e
00000380: 7f07 fcbd e2ac c23e 28ec 993e 1b3f f7bd
00000390: bb51 f8bd bda8 0b3f 1625 f73e 2e96 6f3e
000003a0: 0394 a93e b7f3 dc3e 4cab 933e d9d3 3d3e
000003b0: 888c 2dbe b0de 3fbe 449d abbd 3d3e 483e
000003c0: 32a7 08be 2d8e ec3e b843 0abe 6a31 50be
000003d0: a53d 1bbe f1ef 90be 2c13 ae3e 8b82 b63e
000003e0: 16ba fb3e 38fe 073f e124 b23e 83aa 8abe
000003f0: ffe2 96be 9116 19be d429 07be 3233 9abe
0.3285547 0.3705942 0.5005083 -0.09218899 -0.24715519 -0.18333827 -0.0522191 -0.4805595
0.19981076 0.40650985 0.6048093 -0.37847006 -0.055214494 -0.17863582 0.25723156 -0.110290416
0.4071331 0.010218473 0.33209574 0.24613154 0.3767541 0.22597711 -0.36884955 0.49693778
-0.19152309 -0.054565504 0.20426908 -0.36673957 -0.17626902 0.116660945 -0.14187627 -0.4237697
-0.52357113 -0.33475488 -0.13345501 0.44711015 0.45292473 -0.12390385 0.63373053 -0.13716272
-0.1627065 0.38442108 0.23583937 0.10006397 -0.42220917 0.36599457 -0.083441496 0.10315082
-0.20141205 -0.12904748 -0.120956354 0.39249292 -0.20952712 0.15886554 -0.16178179 -0.07229568
0.61748546 -0.10819932 0.07298871 -0.08105674 0.42055836 -0.08382201 0.40596753 0.38882515
-0.0914089 0.09185916 -0.25241414 -0.102247834 0.40735602 -0.6323714 -0.050604366 -0.11071391
-0.0946087 0.3924541 0.5191321 -0.107866116 -0.17664592 -0.06714487 -0.09208677 -0.27925292
-0.19451982 -0.3139804 -0.5717956 -0.12293943 -0.121344544 -0.18285632 -0.21811213 0.41234353
0.2456632 -0.13323034 0.35430846 0.2602061 -0.07325176 0.40265682 -0.13401403 0.40394855
0.659634 0.49359566 0.22201392 -0.19569074 -0.26317716 -0.14455138 0.15282346 -0.10807865
-0.07746515 0.5546867 -0.06980493 0.2298357 -0.14459598 0.20629999 0.41458634 0.13142909
-0.060131095 -0.11915929 0.4631354 0.49153623 0.3188985 -0.25568566 0.32609686 0.40951574
0.39113152 -0.14153135 0.48614752 0.39914274 0.18729256 0.049045604 -0.115870446 -0.15593272
0.26224738 0.50483304 -0.32973182 -0.19377512 0.04682159 0.24417105 0.36731294 0.21892476
0.35105926 -0.23342186 -0.21521138 -0.23683253 0.5218257 -0.11578399 -0.067944646 0.48942176
0.42219347 -0.20299527 0.39157355 0.35393742 0.44559446 -0.48057848 -0.0934166 -0.12737492
-0.12203203 0.39112908 -0.099914216 -0.13927037 0.5129294 0.13923997 0.27596012 0.21535859
-0.17759836 -0.11499398 0.15091176 -0.23958607 -0.15508142 -0.20874435 -0.10500848 -0.30035684
0.38961518 0.47332302 0.080190405 -0.085691966 0.59621674 -0.091436006 0.3753308 -0.08358555
-0.1588137 -0.19424172 -0.08517879 -0.23354341 0.45587835 -0.17358318 0.524848 0.354903
-0.08075038 0.5485188 0.17225836 -0.07974012 0.4793207 0.21389133 0.4972038 0.27111605
-0.15612207 0.14107884 -0.13115847 -0.119601764 -0.29014033 -0.100530475 0.19848008 -0.17522094
0.10989539 -0.14478071 -0.11059959 0.10563694 0.23961514 -0.16172153 0.46540344 -0.22793016
0.25343227 -0.082062975 -0.17424628 0.46035716 0.32711145 -0.09093994 0.11511522 -0.20128936
0.3224385 0.12462367 -0.12414559 0.12724622 0.27963564 0.13922971 0.10126555 0.38855973
-0.12306117 0.38022524 0.30062985 -0.12072583 -0.12124964 0.5455435 0.48270482 0.23397133
0.33120736 0.4315469 0.28841627 0.18537845 -0.1694814 -0.18737292 -0.083796054 0.19554992
-0.1334503 0.46202222 -0.13502395 -0.2033135 -0.15160234 -0.2830806 0.33999002 0.3564647
0.4916541 0.5312228 0.3479376 -0.27083215 -0.2947006 -0.14950015 -0.1319955 -0.30117184
