src/rl/out_dir/models/exp72/action_net.pth (torch, 17911 bytes, 2 tensors)

weight f4 [8, 512]
0	0xbd8b6ed6	-0.0680825
1	0x3e362318	0.17786825
2	0xbd142642	-0.036169298
3	0x3de70ce4	0.112817556
4	0x3d97c980	0.0741148
5	0xbe0f916b	-0.14020316
6	0x3e2cec9b	0.16887133
7	0xbdca3964	-0.09874228
8	0x3e71bfb1	0.2360828
9	0x3d58afe8	0.052902132
10	0xbd1a8660	-0.037725806
11	0xbdb1a09a	-0.086732104
12	0x3d711f9d	0.05886804
13	0xbc803dbe	-0.015654441
14	0xbcaa67a2	-0.02080137
15	0x3dc71f8b	0.09722813
16	0xbd9cd31a	-0.07657452
17	0xbe04b595	-0.12959893
18	0xbe7b1c7f	-0.24522589
19	0xbdd2b5f5	-0.10288612
20	0x3da5e844	0.08100942
21	0xbd4197dc	-0.047263965
22	0xbe382f5c	-0.17986816
23	0x3d4075e5	0.046987433
24	0x3d45b47e	0.048267834
25	0xbd20dfe6	-0.039276026
26	0xbcca18d9	-0.024670051
27	0x3e0bfab6	0.13669857
28	0xbdb2cbdb	-0.087302886
29	0x3e403452	0.18769959
30	0x3ceb6593	0.028734958
31	0x3e14edd5	0.1454385
32	0xbe1cc50d	-0.15309544
33	0xbe81c8e2	-0.25348574
34	0xbe66b6bb	-0.22530644
35	0xbd43b333	-0.04777832
36	0x3d489430	0.048969448
37	0x3dc28b6e	0.0949925
38	0x3da337fd	0.07969663
39	0xbd8e88a4	-0.06959656
40	0xbe4d7294	-0.2006324
41	0x3c686e78	0.014186494
42	0xbe22e50b	-0.15907685
43	0x3c8a0e64	0.016852565
44	0x3d875425	0.06607846
45	0x3de00ae9	0.10939581
46	0x3dae8c99	0.085229106
47	0x3c220057	0.009887776
48	0xbe72122e	-0.23639748
49	0xbd7f2c11	-0.062297884
50	0x3e6544aa	0.22389475
51	0xbdcdb96e	-0.100451335
52	0xbcee8770	-0.029117316
53	0x3ce38634	0.027773954
54	0xbdd65f1f	-0.10467362
55	0xbdeadf19	-0.11468334
56	0x3c82e06d	0.015976155
57	0xbe4b7f11	-0.1987269
58	0x3dce617d	0.10077188
59	0x3e8d395a	0.27582818
60	0x3ea91e10	0.33030748
61	0x3e476681	0.19472696
62	0xbc3f9e98	-0.011695527
63	0x3e15a05e	0.14611956
64	0x3e5303e0	0.20606947
65	0x3e4805cb	0.1953346
66	0xbe114c48	-0.14189255
67	0xbe3cefa8	-0.18450797
68	0xbcf4a231	-0.029862495
69	0xbdbaa9a3	-0.09114387
70	0xbcc2d219	-0.023781823
71	0xbe18f349	-0.14936556
72	0x3e340a68	0.17582095
73	0x3e3f97e5	0.18710287
74	0x3e2b92c0	0.167552
75	0xbdbd7db2	-0.0925249
76	0x3e3fe866	0.18740997
77	0xbdba5c90	-0.09099686
78	0x3e5ac339	0.21363534
79	0xbcd02947	-0.025410308
80	0xbdebe236	-0.11517756
81	0xbe7c6acc	-0.24650115
82	0xbe39a27f	-0.18128394
83	0xbdde05f1	-0.10840977
84	0xbd55b771	-0.052176896
85	0xbd5a34d9	-0.053273056
86	0xbd129bbb	-0.035793047
87	0xbbb23d84	-0.005439462
88	0xbe8ef73f	-0.2792301
89	0xbd260ab4	-0.04053755
90	0xbdd102e8	-0.102056324
91	0x3e354131	0.1770065
92	0x3da25f23	0.07928302
93	0x3de3de2d	0.11126361
94	0xbde3a062	-0.11114575
95	0xbe058ae9	-0.13041271
96	0xbdb345d0	-0.0875355
97	0x3db18a05	0.08668903
98	0xbe839d8a	-0.2570613
99	0xbc83def4	-0.016097523
100	0xbe46cd7e	-0.19414327
101	0x3d85c264	0.06531218
102	0x3e6d3e2a	0.23168245
103	0xbd31d99f	-0.04342043
104	0x3df8f6be	0.12156437
105	0x3d212647	0.039343145
106	0x3c828a9a	0.015935231
107	0x3e0c34bc	0.13691992
108	0xbe5cd4ca	-0.21565548
109	0xbde487a3	-0.11158683
110	0xbd34c6a9	-0.04413477
111	0x3de761de	0.112979636
112	0xbe56f139	-0.20990457
113	0xbd947a3e	-0.07249878
114	0xbd86e027	-0.065857224
115	0xbd0786db	-0.033087593
116	0x3e448824	0.19192559
117	0xbdda68c7	-0.10664516
118	0xbc0ab6b1	-0.008466409
119	0x3d7c5a82	0.061609752
120	0xbd9061a4	-0.070498735
121	0x3cf9e0a9	0.030502634
122	0xbe3e6f7e	-0.18597218
123	0x3e0d6386	0.13807496
124	0xbe817640	-0.2528553
125	0x3d73ceda	0.05952344
126	0x3b35197e	0.0027633603
127	0x3e7d027a	0.24707976
128	0xbdab64bb	-0.08368822
129	0x3e1a391e	0.15060851
130	0xbb67698f	-0.003531072
131	0x3e517f15	0.20458634
132	0xbdc4f376	-0.09616749
133	0xbd870a22	-0.065937296
134	0xbdcbe2a7	-0.0995534
135	0x3d8e8c0c	0.069603056
136	0xbe454380	-0.1926403
137	0x3e876478	0.2644384
138	0x3b7a8050	0.0038223453
139	0xbe4dd2d1	-0.20099951
140	0xbddfadda	-0.109218314
141	0xbdaf6cd9	-0.08565683
142	0xbdc16ed5	-0.09444968
143	0x3dd8fa2f	0.10594594
144	0xbe2a32f6	-0.16621003
145	0xbe2f2a2c	-0.17105931
146	0xbce99a4e	-0.028515961
147	0x3d6165d9	0.05502877
148	0xbe4b44d8	-0.1985048
149	0xbe0df517	-0.13863026
150	0xbdedf06b	-0.11618122
151	0xbdf6d0cd	-0.12051544
152	0x3dcfdaa0	0.10149121
153	0xbd8e5a5c	-0.069508284
154	0x3de044f2	0.1095065
155	0xbdc77885	-0.09739784
156	0xbda1be24	-0.078975946
157	0xbe7b2177	-0.24524485
158	0xb98016ec	-0.0002443114
159	0x3e1f5387	0.15559207
160	0x3d463bb9	0.0483968
161	0xbc7fe368	-0.015618183
162	0x3e1baaf2	0.15201929
163	0xbe1dabb8	-0.15397537
164	0x3e0a584d	0.13510247
165	0x3de02cc7	0.109460406
166	0xbd13c6a0	-0.036078095
167	0xbe0fafae	-0.1403186
168	0x3d8ad7c2	0.06779434
169	0xbe395b84	-0.18101317
170	0xbe2d58f5	-0.16928466
171	0x3e1ba9dc	0.15201515
172	0x3db28570	0.087168574
173	0x3e28e58e	0.16493818
174	0x3d80331c	0.06259748
175	0x3e12657c	0.14296526
176	0x3d8625f3	0.06550207
177	0xbe9dba7a	-0.30806333
178	0xbd07b40a	-0.033130683
179	0xbca386d6	-0.019961756
180	0x3ea1aaec	0.31575716
181	0xbdf4f8ce	-0.11961518
182	0xbe0b015e	-0.1357474
183	0xbc5d820b	-0.013519774
184	0xbe0249fa	-0.12723532
185	0xbe421a6d	-0.18955393
186	0x3e9572c3	0.2918912
187	0xbdc75ea8	-0.09734851
188	0xbdc365fe	-0.09540938
189	0xbe22a7a7	-0.15884267
190	0xbd2837a2	-0.04106868
191	0xbddc853f	-0.10767602
192	0x3dcac382	0.099005714
193	0x3dee8c50	0.11647856
194	0xbe49c55a	-0.1970419
195	0xbc20fd75	-0.009826054
196	0x3d3210a6	0.04347291
197	0xbdfaa5b5	-0.12238637
198	0x3d37f419	0.044910524
199	0x3e184e2a	0.14873567
200	0x3d106b3f	0.035258528
201	0xbd32be2b	-0.04363839
202	0x3d95ff33	0.07324066
203	0x3e106cd7	0.14104019
204	0xbd7a6396	-0.06113013
205	0x3c91af35	0.01778374
206	0xbdab76fe	-0.08372305
207	0xbe4a2f57	-0.19744621
208	0xbdb11280	-0.08646107
209	0x3ddf0582	0.108897224
210	0xbe2902f9	-0.1650504
211	0xbd477489	-0.04869512
212	0xbe245014	-0.16046172
213	0xbe13ad14	-0.14421493
214	0xbe12c3cb	-0.14332502
215	0x3e258d2e	0.16167137
216	0x3e4187ef	0.18899511
217	0xbe92eca8	-0.2869618
218	0xbe66a34b	-0.22523229
219	0xbbac4b92	-0.005258032
220	0xbcbc9008	-0.023017898
221	0x3b3c4cb4	0.0028732242
222	0x3e3a1473	0.18171863
223	0xbcf83d89	-0.03030278
224	0xbd487597	-0.048940267
225	0xbe4afea8	-0.19823706
226	0x3e3859fa	0.18003073
227	0xbd1dc4a7	-0.03851762
228	0xbc53ef07	-0.0129354065
229	0x3c859750	0.016307503
230	0x3e6870fd	0.22699352
231	0xbdac9573	-0.08426943
232	0x3bf503c0	0.0074772537
233	0xbe216f11	-0.15765025
234	0xbd98d131	-0.07461775
235	0x3e1fa520	0.15590334
236	0xbd87731d	-0.06613753
237	0x3e82d75e	0.25554937
238	0xbd0188de	-0.031624667
239	0x3d25fb6e	0.040522985
240	0xbdad917e	-0.08475016
241	0x3e860e31	0.26182702
242	0xbe235bfc	-0.15953058
243	0x3c544570	0.012956008
244	0x3e8f04eb	0.2793344
245	0xbd80f6c7	-0.06297069
246	0x3e407226	0.18793544
247	0xbe39c71f	-0.18142365
248	0x3dd517d6	0.10404937
249	0xbe8046ab	-0.25053915
250	0x3e4ba023	0.19885306
251	0x3e36fb6b	0.17869346
252	0x3d2b9802	0.041893013
253	0x3d9e60e8	0.07733327
254	0x3e6c65ff	0.23085783
255	0x3e1d087d	0.1533527

bias f4 [8]
0	0xbdfb2f9a	-0.12264939
1	0xbccdd16f	-0.02512428
2	0xbc0b525b	-0.008503522
3	0xbc241203	-0.01001406
4	0x3cdbf759	0.026851343
5	0xbc4c820c	-0.0124821775
6	0x3c4218cb	0.011846731
7	0xbda1d305	-0.07901577
