src/rl/out_dir/models/exp72/action_net.pth (torch, 17911 bytes, 2 tensors)

weight f4 [8, 512]
0.036871694 0.076721385 -0.055520393 -0.10498644 -0.027649544 -0.0143019855 0.11481174 -0.047557402
-0.08995764 -0.15475552 0.008262585 -0.059044447 -0.06534792 -0.036841232 0.14539689 0.08624325
0.110574864 0.0027739778 -0.13655691 0.067532524 -0.13499285 0.07658209 0.09899016 -0.05728314
-0.09614395 -0.026013715 0.028295875 -0.118990034 -0.008199149 0.046133276 -0.031300124 0.017698985
-0.14934546 0.063152544 -0.15825474 -0.08631469 0.017782483 0.15043472 -0.13309945 -0.13615876
0.059473354 -0.037220467 -0.13147704 0.102714166 -0.0940741 0.031114833 -0.016166162 -0.09365435
-0.025169116 -0.028215133 -0.09164949 -0.11979909 0.07705972 0.15378393 -0.1150751 0.0047076736
0.10842893 -0.140448 -0.043878686 0.07701674 0.11217448 0.11104246 0.027795287 0.03990509
0.018209005 0.020721616 -0.15114152 -0.13833725 -0.042746775 -0.17651068 -0.05973562 -0.11526429
-0.066937834 0.03276221 -0.13544926 -0.13490075 0.058356605 0.08351292 -0.046718165 -0.03182794
-0.100266464 0.01128781 -0.12517132 -0.089024305 -0.14882155 0.08991172 -0.123983465 0.07994496
0.05605166 -0.116876416 0.071045704 0.06519343 -0.07599115 -0.06391309 0.07217789 -0.16364877
0.06479976 0.109651946 0.019954434 -0.112990186 -0.15417145 -0.12754388 0.058614146 -0.17152458
0.09339866 0.08603579 -0.13321437 -0.07305502 0.12364558 -0.08594993 -0.11390834 0.1252632
0.037515532 -0.11350998 -0.07983174 -0.07988375 -0.11446802 0.06872736 -0.118012786 -0.10704847
-0.025186714 0.014096188 0.016871376 -0.038778633 -0.04863054 0.0052656266 -0.1720987 0.10209209
-0.15404874 -0.124257036 0.06488694 0.008386435 -0.12592822 0.0029605008 -0.06655025 0.011671364
0.009115952 -0.03511628 -0.16627713 0.029419366 0.08127352 -0.012222572 -0.006336807 0.011715434
-0.07467744 0.06244281 -0.12459931 0.033293832 0.054548297 0.03728062 -0.01693325 -0.15981992
-0.17083551 -0.023132607 -0.063007474 -0.17027108 0.01740088 -0.049491514 0.12748128 -0.07610037
0.066714466 0.10501797 -0.13503985 0.13222621 -0.0719304 0.06820203 0.04623318 0.048023555
-0.04879108 0.118605435 -0.051311355 -0.17324324 -0.0039389394 -0.10845254 0.14182763 0.050130647
-0.06868515 0.09148936 -0.17040792 0.026092352 0.09738681 -0.06503736 -0.042510875 0.14591151
-0.04017639 -0.07592838 -0.15745789 -0.0062061325 -0.06292603 -0.0027465646 -0.1287336 -0.11443061
-0.07012977 -0.106451534 0.061647933 0.054079436 0.047237284 0.13209482 -0.002828859 -0.08100991
-0.02772373 0.052191317 0.0878096 -0.0614995 0.090605706 -0.07936056 -0.16696203 -0.09218499
-0.11508673 -0.113191456 -0.03265386 -0.09384475 -0.032101087 0.10501391 0.0541136 -0.14929269
0.06533921 -0.1414675 0.026080664 0.15496734 0.0584962 -0.012509112 -0.08429441 0.10445008
-0.12941763 0.15702853 0.062235937 0.04701668 -0.07323066 0.08120987 0.030971274 -0.05314871
0.14004616 0.077925734 -0.0360982 -0.01831281 0.100157425 0.08281031 -0.05501995 -0.007634631
-0.10003465 -0.031491265 0.028943274 -0.09139141 0.08663451 -0.09617708 0.057951488 0.06553143
0.070633516 0.09871397 0.113754325 -0.09774034 -0.0041172802 -0.14434285 0.054370362 -0.1641149
00000000: c606 173d 1a20 9d3d 5a69 63bd 2103 d7bd
00000010: 4c81 e2bc e052 6abc 6b22 eb3d 8dcb 42bd
00000020: b63b b8bd 3b78 1ebe cb5f 073c 97d8 71bd
00000030: 21d5 85bd d5e6 16bd ece2 143e 4da0 b03d
00000040: 1375 e23d a0cb 353b 93d5 0bbe 7e4e 8a3d
00000050: 913b 0abe 12d7 9c3d 5abb ca3d baa1 6abd
00000060: 1fe7 c4bd b71a d5bc c0cc e73c 0cb1 f3bd
00000070: b955 06bc 3ff6 3c3d 8f34 00bd 76fd 903c
00000080: 04ee 18be 1f56 813d 880d 22be c2c5 b0bd
00000090: 92ac 913c 8f0b 1a3e 394b 08be 346d 0bbe
000000a0: 559a 733d 7d74 18bd eba1 06be ce5b d23d
000000b0: eca9 c0bd 89e4 fe3c e66e 84bc dacd bfbd
000000c0: 762f cebc 6c23 e7bc bab2 bbbd 3a59 f5bd
000000d0: 7dd1 9d3d 8979 1d3e 7eac ebbd d442 9a3b
000000e0: fd0f de3d 9ad1 0fbe 23ba 33bd f4ba 9d3d
000000f0: bcbb e53d 3b6a e33d f1b2 e33c 8573 233d
00000100: 0d2b 953c 61c0 a93c d8c4 1abe 48a8 0dbe
00000110: 3e17 2fbd 37bf 34be 56ad 74bd af0f ecbd
00000120: b416 89bd ab31 063d 36b3 0abe 6c23 0abe
00000130: 5607 6f3d d208 ab3d 8c5b 3fbd 045e 02bd
00000140: 8158 cdbd 82f0 383c e92c 00be 6052 b6bd
00000150: ad64 18be a323 b83d 0beb fdbd 2fba a33d
00000160: 6d96 653d e75c efbd 6980 913d 2284 853d
00000170: 40a1 9bbd dee4 82bd 00d2 933d 8b93 27be
00000180: bdb5 843d 3391 e03d 7b77 a33c 6667 e7bd
00000190: 1fdf 1dbe dd9a 02be 6315 703d 24a4 2fbe
000001a0: cc47 bf3d 8833 b03d 5969 08be df9d 95bd
000001b0: e539 fd3d 8406 b0bd c748 e9bd ff44 003e
000001c0: e3a9 193d ec77 e8bd d37e a3bd 179a a3bd
000001d0: 366e eabd eec0 8c3d b0b0 f1bd 3a3c dbbd
000001e0: 5e54 cebc b3f3 663c d735 8a3c 58d6 1ebd
000001f0: d130 47bd 478b ac3b a43a 30be a815 d13d
00000200: f4be 1dbe 797a febd 72e3 843d 4267 093c
00000210: 54f3 00be f604 423b 7f4b 88bd 4039 3f3c
00000220: 135b 153c 17d6 0fbd 8d44 2abe e200 f13c
00000230: bb72 a63d 2f41 48bc fda4 cfbb 17f2 3f3c
00000240: 7cf0 98bd 08c4 7f3d ec2d ffbd 1d5f 083d
00000250: 096e 5f3d 90b3 183d 99b7 8abc d5a7 23be
00000260: 81ef 2ebe 9880 bdbc 100a 81bd 8b5b 2ebe
00000270: 4a8c 8e3c 9db7 4abd 748a 023e 83da 9bbd
00000280: 98a1 883d a913 d73d e347 0abe 4f66 073e
00000290: 3f50 93bd 82ad 8b3d 015f 3d3d 59b4 443d
000002a0: 28d9 47bd 68e7 f23d db2b 52bd ad66 31be
000002b0: 3812 81bb 5e1c debd 433b 113e cb55 4d3d
000002c0: cdaa 8cbd c65e bb3d 6a7f 2ebe a1bf d53c
000002d0: bc72 c73d 4f32 85bd e21f 2ebd d469 153e
000002e0: 0090 24bd 5780 9bbd a43c 21be d05c cbbb
000002f0: 5ddf 80bd b5ff 33bb bed2 03be 985a eabd
00000300: 32a0 8fbd 4303 dabd 8b82 7c3d 6682 5d3d
00000310: e27b 413d dd43 073e 6164 39bb 86e8 a5bd
00000320: e01c e3bc 90c6 553d 85d5 b33d e6e6 7bbd
00000330: 7c8f b93d ca87 a2bd 18f8 2abe 7ccb bcbd
00000340: 97b2 ebbd ecd0 e7bd 0ec0 05bd ad31 c0bd
00000350: 6e7c 03bd 8811 d73d 39a6 5d3d 2fe0 18be
00000360: 90d0 853d dbdc 10be 1ea7 d53c c2af 1e3e
00000370: b699 6f3d 05f3 4cbc 8ca2 acbd ece9 d53d
00000380: 0e86 04be 16cc 203e 1ceb 7e3d 9094 403d
00000390: f5f9 95bd 5c51 a63d 78b7 fd3c 76b2 59bd
000003a0: 4368 0f3e 8797 9f3d b5db 13bd bf04 96bc
000003b0: 561f cd3d 7498 a93d 995c 61bd ed2b fabb
000003c0: f7de ccbd fcfc 00bd 721a ed3c 6b2b bbbd
000003d0: 6f6d b13d 7df8 c4bd 8a5e 6d3d 5835 863d
000003e0: 4ea8 903d 8d2a ca3d 07f8 e83d 162c c8bd
000003f0: 40ea 86bb 9dce 13be 75b3 5e3d bd0d 28be

bias f4 [8]
-0.03324666 -0.09508927 0.067197554 0.063516684 -0.011712397 -0.02031251 0.035959613 0.003940738
00000000: a62d 08bd 2abe c2bd df9e 893d 0915 823d
00000010: 5be5 3fbc 6c66 a6bc 634a 133d 4e21 813b
