src/rl/out_dir/models/exp72/value_net.pth (torch, 3575 bytes, 1 tensors)

weight f4 [1, 512]
00000000: cd1a 1f3c 56ab 073c 9e23 8ebd 4354 e5bc
00000010: d84f 3b3d 6639 543c d070 4dbe 1299 043b
00000020: bcb2 37bd 5256 a93c 7739 053c 152c 3d3d
00000030: a3f6 973c 9965 b33d 28ea 663d 2945 433e
00000040: d79f 573d 97e2 a43c 64ff ddbd fe92 4f3c
00000050: 8ee4 aab8 f321 e03c 6fac 78bb 0532 93bc
00000060: 06ee 8e3d 4492 30bd 186e 2b3d f673 0ebe
00000070: a1c9 a93d 1329 c73c 3bff b23d 476b 143e
00000080: a31e eebc a845 143d efe2 c13c db5f 173e
00000090: 585a 5c3d c5cb 0c3d b201 aa3c e6a5 50bd
000000a0: dc63 313e 3dd9 c5bd cdb4 053d 812d 43bc
000000b0: 2294 6b3d 8899 5d3d 28d4 fd3c cec4 343d
000000c0: a75f a5bd 02a6 2f3d 7491 2a3d 05a3 a8ba
000000d0: f597 ff3d bb2c 3d3d 1cfb a9bb 392b fe3c
000000e0: 677e 6bbe e9ac 1d3d 86bd c3bc 41b4 353c
000000f0: 4fa0 4fbd 9be1 603d d68e 0a3c a351 993c
00000100: 7c50 1bbd 9b7f 38be c5d3 463d bf87 ab3d
00000110: 3f48 933d e432 463d b033 2e3c 0471 b1bb
00000120: 0c0e 9e3d c618 b03d 135d 383c 2206 bd3d
00000130: f38a efbd 5d0d e9bd 310b 26be 6cdb 35bd
00000140: 97b1 0b3d d7ae 9fbd 3350 8d3d 152f e33d
00000150: 6414 89be 6941 2f3d 20b5 973d f765 933d
00000160: ef47 813d 2bc8 563d 397f 173d 6e3b 143d
00000170: 1145 3c3d 8d35 a5bb cf45 bb3b 05a8 1c3d
00000180: e659 2d3e 3368 583d d765 773d 05f8 57ba
00000190: 9934 a8bd 1375 46bd 3532 803e a4c1 393e
000001a0: 22f1 653d 0ecd b63d a857 c83b 979f b73d
000001b0: 1312 e6bd 67ce 133c bce3 4ebd 03e9 e43c
000001c0: d0bf c33d 14f5 b03b 5121 683d d6cc ee3c
000001d0: 6625 a83d 6087 b5bd 8f3d 143d deec 0e3c
000001e0: bfec ee3c 645c 083e ffb5 dd3d dfd9 f43c
000001f0: a4da 313c 77cc f33b 2513 a23d 6459 893d
00000200: a8f6 243d fda6 283d bc18 0e3d d271 bcbc
00000210: e89e f53d 661b 153d cf3e 163c dd05 beba
00000220: ba4c 023d ac15 9fbd d5fb 1ebd 8a05 de3c
00000230: 56d5 36bd 3366 253c 58d3 c93d 85c3 a93c
00000240: e1c4 1c3d 4b30 63bb 6f05 453d f638 503d
00000250: 216f 483d 3b22 293d 42e9 053e b361 e13d
00000260: 6a68 253d ddcf 1a3e 3001 563d 9dca 98bc
00000270: 084b 7b3d be43 943d 44e7 cfbd a143 34bd
00000280: a204 37be 00f6 b03c e5aa 94b9 6dc0 c0bd
00000290: 95f7 523d 5222 57bb 3e53 cebc b84b c13c
000002a0: a067 65bd 91f5 403e 20af 89bd 3461 e33c
000002b0: de87 ad3c faec 643d dcfd c63c 51e6 293d
000002c0: af2f af3d eb2d 9abd 5e4b 783c 595e 1fbc
000002d0: 0f28 453d 6ca0 dc3d e797 9a3d d303 5b3d
000002e0: 3d71 2f3d 22c7 4fbe bb43 1bbe e6ed 71bd
000002f0: 029d f5bb fee5 9c3c e261 6ebd fbf2 973c
00000300: 0482 c53c 46e9 263e 2e42 1a3d f1ce e83c
00000310: f4b0 2c3e 600b 553d 8720 c2bc 9172 e9bd
00000320: fd64 2b3d 2c76 aaba bff1 103d 3753 8abd
00000330: 52c4 183d 11b6 9c3d 639a 05bc 44f6 643d
00000340: afcd 1f3d 22d7 f23b a99b bf3d e9a5 83bb
00000350: a03b c53d 1bf3 3f3e ac67 b3bc b053 82bd
00000360: 139d a73c 495f 3b3d a12f 4e3c 319b 883d
00000370: 1819 773e 9a4b a5be 169e 583c 9e7a 853c
00000380: e950 253d 5eda cc3d d1a7 2c3d 69e7 293d
00000390: fc32 e8bd 2621 163d 4b7d 973d 6477 23bd
000003a0: 86e2 d13d 36d8 69be 128e b6bd 5881 a2bb
000003b0: f54b a23d 52c2 193d cbd5 82bc d09f 773c
000003c0: ad56 39bb 5870 473d 0793 993c 411d 18be
000003d0: 6380 ac3d 5c4d c53c 5b47 713d 558b 423d
000003e0: 8586 8cbb 6f3c 1a3d d090 b9bd bb68 2f3e
000003f0: f8e3 ea3c 10e6 cbbd 7f55 303d d674 d93d
0.00971098 0.008280596 -0.06940387 -0.02799428 0.04573044 0.012953138 -0.20062566 0.0020232839
-0.04484819 0.020671044 0.0081313765 0.046184618 0.018550223 0.087596126 0.056375653 0.19069351
0.05264267 0.020127578 -0.108397275 0.012669323 -8.148803e-05 0.027359938 -0.0037944575 -0.017968187
0.06978993 -0.04310824 0.04185304 -0.13911423 0.08290411 0.024311578 0.087400876 0.14494048
-0.029067343 0.036199242 0.02366778 0.1478266 0.053797096 0.034374017 0.020752762 -0.050939463
0.1732325 -0.096605755 0.03264313 -0.011912704 0.057514317 0.054101497 0.030984953 0.044133
-0.08074885 0.042882927 0.04164262 -0.0012865966 0.124801554 0.046185236 -0.0051874053 0.03102647
-0.22997437 0.038494978 -0.023894083 0.011090339 -0.05068999 0.054902654 0.008456906 0.018715685
-0.037918553 -0.18017428 0.048541803 0.08375501 0.07191514 0.048388377 0.01063244 -0.005415084
0.07717523 0.08598475 0.011252659 0.09229685 -0.11696424 -0.11379502 -0.16215207 -0.04439871
0.03410491 -0.0779702 0.069000624 0.110929646 -0.2677337 0.04278699 0.07407594 0.071971826
0.06312548 0.05243699 0.036986563 0.03618949 0.045964304 -0.005041784 0.005715109 0.038246173
0.16928825 0.052833747 0.060399856 -0.0008238557 -0.08213157 -0.048451494 0.25038305 0.18140274
0.056138165 0.0892583 0.006113965 0.08965986 -0.11233916 0.009021378 -0.050510153 0.02794314
0.0955807 0.0054003093 0.056672398 0.029150408 0.08210258 -0.08863711 0.03619152 0.008723466
0.029165624 0.13316494 0.108257286 0.029889045 0.010855351 0.0074401456 0.07913808 0.06706503
0.040274292 0.041174877 0.034691557 -0.023003493 0.119931996 0.036403082 0.009170248 -0.0014497597
0.031811453 -0.077678055 -0.038814384 0.02710225 -0.044637047 0.010095167 0.09854764 0.020723114
0.038273696 -0.0034666236 0.048100885 0.050835572 0.048934106 0.04129241 0.13077262 0.11004963
0.04038278 0.15118356 0.052247226 -0.018651301 0.061350852 0.07239483 -0.10151532 -0.04400981
-0.17872861 0.021601677 -0.00028356086 -0.09411702 0.051505644 -0.0032826853 -0.025186177 0.023595676
-0.056007028 0.18843676 -0.067228556 0.027756311 0.02118295 0.05589006 0.024290971 0.041479412
0.08554017 -0.075282894 0.015154688 -0.009727084 0.048133906 0.107727855 0.07548504 0.053470444
0.0428326 -0.20290807 -0.15162556 -0.05906477 -0.0074955234 0.019152638 -0.058198817 0.01854848
0.024109848 0.16299924 0.03766077 0.02841899 0.16864377 0.0520128 -0.02369715 -0.11398805
0.041844357 -0.0013005189 0.035386797 -0.06754153 0.0372966 0.07651914 -0.008154484 0.05589892
0.039014515 0.0074108997 0.09355862 -0.0040175808 0.09630513 0.18745081 -0.02190002 -0.063636184
0.020460641 0.045745168 0.012584598 0.066702254 0.24130666 -0.32284242 0.013221284 0.01629382
0.040360365 0.10002588 0.04215223 0.041480456 -0.113378495 0.036652707 0.073969446 -0.03990878
0.10248284 -0.22836384 -0.089138165 -0.0049592666 0.07924644 0.037538834 -0.015971085 0.015113786
-0.0028280423 0.048691124 0.018746866 -0.1485491 0.08422925 0.02408474 0.05890594 0.04749616
-0.004288497 0.03765529 -0.09060824 0.17129795 0.028673157 -0.0995599 0.043050285 0.10617988
