src/rl/out_dir/models/exp72/value_net.pth (torch, 3575 bytes, 1 tensors)

weight f4 [1, 512]
000000 bd 80 83 3d 7b 46 d1 bb 08 28 1d bd 5f 92 f5 3d
       0.06421039 -0.0063865758 -0.038368255 0.11990809
000010 c1 36 67 be 51 37 fb be 39 20 60 3e f6 0c b2 3d
       -0.2257948 -0.4906564 0.21887292 0.08693878
000020 38 fb 9b 3e f4 13 0d be 74 73 83 be 02 d3 35 bf
       0.30465102 -0.13777143 -0.2567402 -0.710251
000030 8f fb bb 3d 27 67 00 3e 24 64 79 3e 98 cc c6 bd
       0.0917884 0.1253935 0.24354607 -0.09706992
000040 d4 c6 ee be 36 30 14 bd 75 1a bc bd 74 a3 e8 3e
       -0.4663607 -0.03617879 -0.09184734 0.45437205
000050 c5 b6 75 be e4 40 ce bb 55 d6 13 3e ae 49 2b 3f
       -0.23995502 -0.0062943567 0.1443723 0.669093
000060 33 7b a3 3d 2f bc 80 bf 57 d6 d9 be 74 e8 7f bf
       0.07982483 -1.0057429 -0.4254634 -0.9996407
000070 e9 be 1e bf de 12 7b 3e f6 d8 04 bf 1b 8a 14 be
       -0.62010056 0.24518916 -0.51893556 -0.14505808
000080 4f b7 40 3d f6 26 5c bd f4 8f 16 bf d8 7d a8 be
       0.047049817 -0.053748094 -0.58813405 -0.3290851
000090 19 71 db bd fd 6e 0f 3f 39 65 d5 be f5 05 ad 3e
       -0.10714931 0.5602873 -0.4167879 0.33793607
0000a0 e8 d4 2f be 79 e8 49 3f 10 ef 13 be c7 2a 78 3f
       -0.17171061 0.7887035 -0.14446664 0.96940273
0000b0 9c 64 cc 3d 1b 25 64 3f 74 72 fa 3e 1b be 18 3e
       0.09980127 0.8911912 0.48915446 0.1491627
0000c0 c9 e4 b6 be fd 5b e1 be a8 ec 4c 3f 31 34 73 3d
       -0.35721424 -0.44015494 0.8004861 0.059375945
0000d0 24 11 eb be 15 30 f9 3e f4 e0 db 3e 45 54 83 3f
       -0.45911515 0.48669496 0.42945063 1.0260092
0000e0 ad da 3f 3f 01 86 05 be 44 60 6a 3e e3 aa 96 3d
       0.7494305 -0.130394 0.22888285 0.07356813
0000f0 91 5b 67 bf 3c b9 c4 3e 27 e1 00 3f e2 59 33 3f
       -0.90374094 0.38422573 0.50343555 0.70059025
000100 df a7 10 bb 51 67 36 bd b8 30 23 3e 4d d4 de 3d
       -0.0022072715 -0.044532124 0.15936553 0.10880337
000110 39 0d a7 3e b0 41 a4 3c ed 4b 2e be 99 15 1d 3e
       0.32627276 0.020050853 -0.17021151 0.1534027
000120 c6 67 78 3e 3b 9f 94 be 09 b5 4f bf 2d 71 5b 3e
       0.24258336 -0.29027733 -0.8113561 0.21429892
000130 54 d5 73 bf 0c f7 92 3e d7 6c 70 be 5a c4 a1 3e
       -0.9524739 0.28704107 -0.23479019 0.31595117
000140 dc 5d 45 3e 8d 86 0b be 43 84 75 3f c0 d9 7f bf
       0.19274086 -0.13625546 0.9590494 -0.99941635
000150 75 3a 04 3f 03 a1 a2 3d ab c0 a9 3e a2 3f 64 3d
       0.516517 0.07940867 0.33154806 0.055724747
000160 37 86 05 bf a5 b6 02 bd c6 2c f8 3e 38 d4 09 bf
       -0.5215792 -0.031912465 0.4847166 -0.53839445
000170 fa 94 5c bf ac 65 84 be 74 75 ff be 61 84 71 3e
       -0.8616482 -0.2585882 -0.49894297 0.23585655
000180 bf f8 ee be 1c bd ff be 0f 68 02 bf e4 e2 b8 bd
       -0.46674153 -0.49948967 -0.5094003 -0.09027651
000190 a3 b8 16 3f 35 b8 00 bf 86 32 ac 3d ec 76 50 3d
       0.58875483 -0.5028108 0.08408074 0.050894663
0001a0 52 c8 98 be 9f da 9c 3e ab 91 6f bf 4f 28 7b bd
       -0.29840332 0.30635545 -0.93581647 -0.06131774
0001b0 5c f3 fd be f0 20 c1 3e 99 16 01 be 8c 85 0c be
       -0.4959973 0.37720442 -0.12606277 -0.13722819
0001c0 fc 29 8c 3d 02 31 b3 3d 57 2f 44 bd 10 52 2a bf
       0.068439454 0.08749582 -0.04789671 -0.6653147
0001d0 a2 83 85 bd 98 01 7f 3e 10 81 21 be 29 09 90 3d
       -0.065192476 0.24902952 -0.1577189 0.07032997
0001e0 e3 e5 8c 3e 3d 61 4f bf b8 f7 0e 3d b7 41 37 be
       0.2751914 -0.8100775 0.03490421 -0.17896162
0001f0 da 3c ee 3e 4c f4 6d 3e 29 d6 b3 bc 50 4a 1e 3e
       0.465308 0.23237723 -0.021952705 0.15458035
000200 d0 48 fa 3e 00 8a 09 bf 5e f5 06 3e a2 d1 4e 3e
       0.48883677 -0.53726196 0.13179538 0.20197156
000210 4a f4 9c 3e 7a ba 13 be 00 86 bf 3e e7 ac 6f 3f
       0.30655128 -0.14426604 0.3740692 0.93623203
000220 92 e7 1f 3e ed 7e 99 3e 60 0d 94 3e 7b a0 95 3e
       0.15615681 0.2997965 0.28916454 0.29224
000230 e8 06 f4 3e e4 6e 13 3f 9e f4 51 bf 29 53 66 bd
       0.4766152 0.5759108 -0.8201388 -0.05623165
000240 38 ae 88 be af de c1 3d 90 03 86 3d c6 49 4b 3e
       -0.26695418 0.09466302 0.06543648 0.19852361
000250 cd 0a b6 be 18 07 da 3e 24 c0 02 bf ce 12 95 3d
       -0.35555115 0.42583537 -0.51074433 0.07278977
000260 1c 92 ad 3d e6 77 db be ed b1 0c be 79 b7 a8 3d
       0.08475134 -0.42864913 -0.13739748 0.0823812
000270 2e 69 81 3e 40 c1 13 3e 63 71 27 be 92 a4 c0 3e
       0.25275558 0.14429188 -0.16351847 0.37625557
000280 1f 03 17 be 84 d2 5a 3f 58 cd 0c bd a6 c8 b5 3e
       -0.14747284 0.8547747 -0.03437552 0.35504645
000290 bb 51 67 3f 18 9f 47 3e 6d b8 82 be 45 25 a1 3d
       0.90359086 0.19494283 -0.2553133 0.07868437
0002a0 61 d3 9d 3d 40 7f 20 be 0d 16 f5 3d bb 4f fb 3b
       0.07706333 -0.15673542 0.119670965 0.0076694167
0002b0 1e 49 00 bd 29 f3 56 bf 9e 72 19 3f c8 36 0a 3f
       -0.03131973 -0.8396478 0.59940517 0.5398984
0002c0 66 1f f3 3d 18 ad 6b 3f c8 14 63 be e5 4d e4 be
       0.11871223 0.92060995 -0.22175896 -0.4459068
0002d0 95 bf 74 bf 33 38 80 3e 29 43 30 bc 22 38 0e be
       -0.9560483 0.25042877 -0.0107582 -0.138886
0002e0 e2 8e 17 3f d2 18 93 be 47 f3 77 3f 80 65 a2 3e
       0.59202397 -0.28729874 0.96855587 0.31718063
0002f0 25 96 65 3e 8c ee 64 be 8d 63 58 3d 6e f7 2e bf
       0.22420557 -0.22356623 0.052829314 -0.683463
000300 93 b7 a4 bd f2 1c 0e 3d 76 16 83 be 5a 8c 3c 3e
       -0.080428265 0.034695573 -0.25603074 0.18412915
000310 81 d0 a2 3e 7a 84 28 3e a6 22 4e 3f b4 98 66 3e
       0.317997 0.16456786 0.8052162 0.22519189
000320 c7 5c de bd fc d2 9a bc de 48 4e 3e a7 32 1b bc
       -0.108575396 -0.018899433 0.20144984 -0.009472526
000330 bd 7a c1 3e fc 9a 09 3e 9d 0a 55 bf 80 a0 82 bd
       0.37788954 0.13438028 -0.8321932 -0.06378269
000340 25 33 88 be c9 c3 45 3e 4e 65 0e 3e 3f 86 69 3f
       -0.2660152 0.19312967 0.13905832 0.9122047
000350 ae 33 41 be e7 63 d2 b9 4e 10 19 be c4 1c cd 3e
       -0.1886737 -0.00040128754 -0.14947626 0.4006101
000360 0a e3 39 bd 86 aa 01 be 8f 6b 0f 3d 30 47 af be
       -0.045382537 -0.12662706 0.035014685 -0.34234
000370 cd 5d 67 bd 60 49 14 bf 13 e3 05 3e 0a 92 f3 3e
       -0.05648594 -0.5792446 0.13074903 0.47572356
000380 40 71 5b bf 32 a5 7b 3e 52 e3 12 3f c2 d8 aa be
       -0.8571968 0.24574736 0.57378113 -0.33368498
000390 39 9e 4c be d3 58 77 be e5 74 17 bf 5c c1 05 3f
       -0.19982232 -0.24154978 -0.5916274 0.5224817
0003a0 05 d7 df 3e a3 95 2b 3f bb f6 d9 be 18 0b 39 bd
       0.43718734 0.670252 -0.42571053 -0.045176595
0003b0 22 0f 44 be 2c 2b 67 bc 52 23 7d 3f 55 34 b2 3c
       -0.19146398 -0.014109414 0.9888202 0.02175347
0003c0 c7 a8 dd bd 82 5e ee be e2 52 de bd a5 bd 69 3e
       -0.10823207 -0.4655648 -0.108556524 0.2282625
0003d0 17 5e a5 3e 8c 80 dd 3e d2 79 7e 3d e4 ab 7a bf
       0.32298347 0.43262136 0.062127896 -0.97918534
0003e0 b2 6c a8 bd c0 86 e8 3d 12 33 24 3f 5f b8 8d 3e
       -0.08223857 0.113538265 0.6414043 0.27679726
0003f0 5a c0 0c be f2 0e 4f be d2 db 42 bc 12 9f 88 3d
       -0.13745251 -0.20220545 -0.01189323 0.06670965
