src/rl/out_dir/models/exp68/action_net.pth (torch, 17911 bytes, 2 tensors)

weight f4 [8, 512]
0.1457351 0.01951326 -0.022976926 0.19678532 0.05912714 0.14511076 0.04514619 0.10815239
0.047952473 0.0055553596 0.1378847 0.04487472 0.06117 -0.1150528 0.09048845 0.08516112
0.1069319 -0.048694905 0.21736981 0.13167664 0.059858564 -0.02569438 0.12454611 -0.015230314
0.16392113 -0.029183347 -0.11031309 -0.1556097 -0.029790293 -0.07466579 -0.13793172 0.18064326
0.017298894 0.10254689 -0.10542355 -0.029238328 -0.019228106 0.11662917 0.016421698 0.025169073
-0.05676508 0.0075459657 -0.051881026 0.09392343 0.08276893 0.09920304 -0.009885165 -0.07272743
0.045003843 -0.047884867 0.12492306 -0.05094371 0.13437407 0.034633532 0.0043885047 -0.03058324
0.07997594 -0.00997007 0.032313246 -0.012164718 -0.029740054 0.13099459 -0.11708574 0.098290175
-0.09882928 0.043449502 0.09172443 -0.002730127 0.1114419 -0.15097806 -0.07028109 -0.011867567
-0.13371843 -0.07744361 -0.105634555 0.103147045 -0.07298334 0.07183584 0.15084395 0.03358235
-0.048700936 0.12524825 0.05420683 -0.010199118 0.17068352 -0.010286777 0.039961886 0.1930853
0.13646954 -0.02288024 0.13025852 -0.070081055 -0.003339629 0.069703005 -0.001555875 0.17342283
-0.03235487 0.07289926 0.0316287 0.01746338 0.053449728 -0.04778103 -0.023826946 0.2074691
0.1321085 -0.114623904 -0.006503011 -0.034382235 -0.097859055 -0.033182263 0.08317739 0.029251117
-0.05259993 0.10366226 0.09225698 0.01854168 0.062103417 -0.10123277 0.012242687 -0.039908763
0.1672775 -0.016412787 0.110235564 -0.18430345 -0.046178002 -0.010305725 -0.036076985 0.11536847
0.052467875 0.026900468 0.19834736 0.21150737 -0.10903104 0.121794045 0.17829254 0.16099411
-0.056474183 0.066750996 0.0961666 0.07857104 0.08670012 0.16038056 -0.124173544 0.032139126
0.20147444 -0.006476993 -0.09754723 0.071414836 0.017105818 0.20373632 0.12313391 -0.079057835
-0.1341217 0.18740974 -0.09198783 -0.002409066 0.033054482 0.08631142 0.020115301 -0.010548376
-0.0039219116 -0.19222413 0.06705933 0.07836843 0.0230888 -0.10129669 -0.028891288 0.11006128
-0.02762999 -0.058554947 -0.08091355 -0.026697684 0.06144602 -0.08785837 0.019715747 0.049864568
-0.007349874 0.047160342 0.15912943 -0.05129607 0.02511154 -0.0159586 -0.02507761 -0.10648117
0.014178163 0.036028173 0.0076650674 0.12940767 0.06882111 -0.019355021 -0.16344745 -0.020678837
-0.06551532 -0.08031391 0.083146736 -0.028218979 0.18465665 -0.026594665 -0.05605107 -0.021792443
-0.058353603 0.003159793 -0.003069508 -0.036517147 0.004820855 0.11173678 0.010504356 0.13495845
0.16697475 0.007951184 -0.03292573 0.0073184907 -0.022374656 -0.025774814 -0.091049924 -0.06553714
-0.08535092 0.17181398 -0.12472084 0.1060316 0.09588305 -0.012114729 0.03144086 -0.004008464
0.06084356 -0.10973401 0.093167104 0.012566568 0.091104105 -0.085541755 -0.168474 0.025808357
-0.10438358 0.028709423 -0.043554656 -0.08385379 0.070240416 0.053566474 -0.0735764 0.06565361
-0.03195966 0.054789726 0.06309771 0.11337624 0.12775359 -0.022882571 -0.13560982 0.099143855
-0.19311605 -0.08378957 0.18660606 0.06428598 -0.05283503 -0.08289999 -0.03254199 -0.01996027
00000000: 953b 153e 46da 9f3c 1b3a bcbc 1782 493e
00000010: 4d2f 723d ea97 143e 36eb 383d 007f dd3d
00000020: d069 443d bc09 b63b a631 0d3e 8ece 373d
00000030: 658d 7a3d cda0 ebbd 0252 b93d f468 ae3d
00000040: 1dff da3d 4f74 47bd 3196 5e3e 3ed6 063e
00000050: 412e 753d 057d d2bc 0812 ff3d 9188 79bc
00000060: f1da 273e ea11 efbc d4eb e1bd 2658 1fbe
00000070: c60a f4bc 61ea 98bd f93d 0dbe 8cfa 383e
00000080: 69b6 8d3c 1b04 d23d 4de8 d7bd 3885 efbc
00000090: 4384 9dbc 46db ee3d cc86 863c 5f2f ce3c
000000a0: 8082 68bd 2644 f73b 3381 54bd ed5a c03d
000000b0: c282 a93d f72a cb3d 63f5 21bc 1ef2 94bd
000000c0: f355 383d ec22 44bd a9d7 ff3d 5aaa 50bd
000000d0: 5b99 093e e4db 0d3d 72cd 8f3b b489 fabc
000000e0: 6dca a33d 8159 23bc e55a 043d 864e 47bc
000000f0: 6aa1 f3bc 7223 063e a6ca efbd 5c4c c93d
00000100: 0167 cabd 1bf8 313d 05da bb3d eeeb 32bb
00000110: a73b e43d fe99 1abe 88ef 8fbd 2f70 42bc
00000120: 7ced 08be c19a 9ebd ee56 d8bd c23e d33d
00000130: 4a78 95bd ab1e 933d d676 1a3e a58d 093d
00000140: a27a 47bd 1441 003e fb07 5e3d 341a 27bc
00000150: a9c7 2e3e df89 28bc 13af 233d 27b8 453e
00000160: acbe 0b3e 576f bbbc 7d62 053e a886 8fbd
00000170: addd 5abb 73c0 8e3d 80ee cbba c195 313e
00000180: 8a86 04bd 354c 953d 198d 013d 5d0f 8f3c
00000190: 1aee 5a3d 0bb6 43bd ba30 c3bc c872 543e
000001a0: 7347 073e f0bf eabd 3617 d5bb 63d4 0cbd
000001b0: 546a c8bd 20ea 07bd e858 aa3d 0aa0 ef3c
000001c0: 0673 57bd e14c d43d 3af1 bc3d b9e4 973c
000001d0: 2760 7e3d 2053 cfbd 8d95 483c 5f77 23bd
000001e0: cb4a 2b3e 1c74 86bc 2fc3 e13d 0bba 3cbe
000001f0: 2525 3dbd 58d9 28bc 76c5 13bd 4e46 ec3d
00000200: 8ee8 563d 5f5e dc3c 921b 4b3e 6395 583e
00000210: aa4b dfbd 286f f93d 5292 363e a4db 243e
00000220: 7951 67bd bfb4 883d fff2 c43d dae9 a03d
00000230: d58f b13d cd3a 243e b34e febd 51a4 033d
00000240: 514f 4e3e f53c d4bb d8c6 c7bd f141 923d
00000250: 8021 8c3c 41a0 503e a22d fc3d 13e9 a1bd
00000260: 3357 09be 57e8 3f3e 1e64 bcbd 6ce1 1dbb
00000270: 2364 073d 0bc4 b03d d8c8 a43c 18d3 2cbc
00000280: 6183 80bb 67d6 44be 6756 893d a17f a03d
00000290: b924 bd3c a474 cfbd 6cad ecbc cf67 e13d
000002a0: 4a58 e2bc 50d7 6fbd 01b6 a5bd 1ab5 dabc
000002b0: d2ae 7b3d 17ef b3bd eb82 a13c ca3e 4c3d
000002c0: 36d7 f0bb 342b 413d d3f2 223e d41b 52bd
000002d0: b7b6 cd3c 9cbb 82bc 8f6f cdbc cd12 dabd
000002e0: 874b 683c 4792 133d 3f2b fb3b 7283 043e
000002f0: 15f2 8c3d 6c8e 9ebc c55e 27be aa66 a9bc
00000300: e52c 86bd 9f7b a4bd d648 aa3d 7d2b e7bc
00000310: a216 3d3e 0edd d9bc cf95 65bd 1186 b2bc
00000320: 3004 6fbd 8814 4f3b cc29 49bb 0193 15bd
00000330: 43f8 9d3b 41d6 e43d 761a 2c3c 8c32 0a3e
00000340: 6efb 2a3e af45 023c 21dd 06bd f3cf ef3b
00000350: 0e4b b7bc b425 d3bc 6278 babd 5638 86bd
00000360: 77cc aebd 01f0 2f3e a46d ffbd 1827 d93d
00000370: 555e c43d db7c 46bc 22c8 003d 6f59 83bb
00000380: 1937 793d 3abc e0bd 65ce be3d 02e4 4d3c
00000390: ca94 ba3d 8430 afbd 7384 2cbe 0c6c d33c
000003a0: 0fc7 d5bd 0630 eb3c 5e66 32bd 89bb abbd
000003b0: 35da 8f3d 8568 5b3d 39af 96bd 6675 863d
000003c0: 22e8 02bd 316b 603d 5f39 813d cd31 e83d
000003d0: d6d1 023e 3b74 bbbc 4ddd 0abe ef0b cb3d
000003e0: 37c0 45be de99 abbd a915 3f3e 5ea8 833d
000003f0: 8b69 58bd 78c7 a9bd c04a 05bd b883 a3bc

bias f4 [8]
-0.014953866 0.012804826 0.008243156 -0.0045967223 -0.0029792495 -0.04173652 -0.01639274 -0.02406356
00000000: 0f01 75bc 55cb 513c 4d0e 073c 1aa0 96bb
00000010: 833f 43bb eaf3 2abd 114a 86bc f120 c5bc
