src/rl/out_dir/models/exp68/action_net.pth (torch, 17911 bytes, 2 tensors)

weight f4 [8, 512]
00000000: 9b5d 0c3d 08b1 a73e 81ab ffbd a6b8 493c
00000010: b6db 15bd 64c5 0abc ec52 a5bc e8f5 fdbd
00000020: f243 a3bc 16a4 02be 635c 56bc 5d99 123e
00000030: 404c 993d 22d4 5f3b 4378 04bd 2b92 273e
00000040: 3009 4dbd 532d 27bc 48db aabd 99c9 be3c
00000050: f0ed fa3c fb65 623c 354a a7bc f73c c2bd
00000060: 2df3 fc3c 05a4 173e ca1a f5bc ab36 5bbd
00000070: 8b75 853e 2dcc 10bd 1260 3c3d fa78 7cbd
00000080: 755a bf39 4acc b03c f88e 913c 356f 833d
00000090: 8b8f 96bd af8f 033e a216 c93d 29d1 30bd
000000a0: 57f2 6e3d 0d92 e9bd ae0a b13c 9f1e eabd
000000b0: 4294 063e 7db1 bbbd b33f c1bd 9c31 c63c
000000c0: 1677 dfbb 996b 5fbb 91cf 0f3e a926 28bd
000000d0: 0949 9d3d e9e8 c8bd 08e4 2d3d 14ed 8dbd
000000e0: a840 03bd c582 b5bc 6ac9 e0bd 3aad 13bc
000000f0: 4d28 85bd 0d4e 11bd dc3c 003c 57a5 eb3d
00000100: d147 ecbd 1230 81bc d673 b4bd a04a c2bc
00000110: 7c8e 8d3d f4af 373d fed0 f93d 5bc8 51bd
00000120: d1b3 413c 043e 8f3d a1c2 233e d093 58bd
00000130: 265e fd3d c34c d1bd 00e1 8dbd 1edd 353e
00000140: 75cd 993c 577a be3b 6bdf 713d 3d28 a1bc
00000150: 6b2a a1bd 99af 17bd 0806 c93b 7402 243d
00000160: fbf9 de3d e8ce e93d d13f fe3d 1268 8c3c
00000170: 2929 ddbd 3300 d7bd 928a e33c fe3b 4bbd
00000180: f9fb 483e 15de fc3c 2360 0a3e 5111 07be
00000190: 78b4 96bd fd17 9c3d 906c 3a3c 0712 9d3d
000001a0: e759 c4bd cc23 d03d a8ee 93bd 9d7f edbd
000001b0: f36a 8abc cbd5 84bd 65a9 493d f6c1 143e
000001c0: 29f3 c8bc 6a45 c03b 407d 1c3d e0c5 fc3d
000001d0: 2cf8 f63b fde7 f5ba ad14 62bd 34e3 133d
000001e0: 5116 f03d 008a e5bd 9bcd 253d ef89 e3bc
000001f0: a2f2 b53c ee64 413e 1995 213d db52 68bd
00000200: 9081 943e 466b 773d 2010 7b3d ea10 8a3a
00000210: 2da6 fdbd 4c0b c23d 7291 d639 976a 923d
00000220: dfc5 27bd 5513 cabc e091 433e c841 9ebd
00000230: dd44 95bd 9646 103e 4a5a b73d ed4b 153e
00000240: 256c a13d f3d6 373d d276 673b 8afb e93b
00000250: 299f 473d a578 4f3e c9ce 76bd 8f09 2e3d
00000260: 5c80 673d dbe6 a7bd a572 dfbd a52b 8ebc
00000270: 8453 44bd 4498 243e ed06 22bc b602 bf3d
00000280: 5a7d 673d c8ac 343c 345d 233d 539a c33d
00000290: decb ad3d 792f 12be f416 7b3d 0773 103c
000002a0: c46b 08bc 075c 123d 4bd8 d8bc f52d 683e
000002b0: 029c 23be 35c6 18bc 4147 5ebd da80 49bd
000002c0: e921 c4bd f973 433d a77c 04bd 2008 5abd
000002d0: d7b8 993d fd0c 373e d5f1 b03d 1791 ebbc
000002e0: 52cc 143e 3f21 0d3d d34f a73d 5ad8 803a
000002f0: 3070 4cbd 3225 703c c470 f1ba b2be a63c
00000300: 0e78 45bc 2bed 01bd b877 e3bd 2f75 fa3c
00000310: d9b1 7dbd 6d20 b23d 3709 8ebd 7388 823c
00000320: 76ab 2fbd 079b 81bd e34d a33d c920 643d
00000330: 926b 093e a65c 6a3c 10af 433d 294e c8bd
00000340: f7fe 703d 37a7 9bbd 7d4a 2d3d 5a26 68bd
00000350: 0f98 9cbd 4971 e83d 0cba 43bb 4653 a63d
00000360: 3021 efbd 45db c6bd 84a3 09be 9cfd 02be
00000370: 1cd2 d9bc 094c 933d 0944 933d 306e a73a
00000380: 4faf 613c c3bb cc3d ccf1 74bc 785c 48bd
00000390: c042 083e c40c 67bd 87d8 013c 0959 113e
000003a0: b1d9 bebd cbf9 17be 3297 1e3e b84b 5c3e
000003b0: 9cd0 e33c 53f7 5c3d 451a 273e f73a 1a3c
000003c0: b6ca 72bb 700f 01bc 4fe8 bcbd 0d67 733d
000003d0: f853 263e e29a 943e 737c 0b3e dd5f fa3d
000003e0: 6fd8 1b3c b2d5 5c3e a99d 153d b3ab aabd
000003f0: 5458 d93d d7b1 b3bb 229c 13bd 1f73 d83d
0.034268957 0.32752252 -0.12483884 0.01231209 -0.036586486 -0.008469913 -0.020181142 -0.124004185
-0.01992986 -0.12757906 -0.01308355 0.14316316 0.07485247 0.003415354 -0.032341253 0.16364352
-0.05005759 -0.010203677 -0.08342606 0.023289489 0.030631036 0.013818259 -0.020421127 -0.09484284
0.030877674 0.14808662 -0.02992 -0.053518932 0.2606624 -0.035350967 0.045990057 -0.06163881
0.00036497755 0.021581788 0.017768368 0.064176954 -0.073515974 0.1284778 0.0981877 -0.04316822
0.058336582 -0.1140481 0.021611538 -0.11431622 0.13142493 -0.091647126 -0.09435978 0.024193577
-0.006819616 -0.0034091233 0.14044024 -0.041052494 0.07679946 -0.09810049 0.042453796 -0.06929985
-0.032044083 -0.022157082 -0.10975917 -0.009013468 -0.065018274 -0.035474826 0.00782701 0.115061454
-0.115371354 -0.015769992 -0.088111565 -0.023717225 0.06911942 0.044845536 0.12198065 -0.051216464
0.011822657 0.069942504 0.15992214 -0.05287534 0.12371473 -0.10219719 -0.06927681 0.17760131
0.018774727 0.005812924 0.05905096 -0.019672507 -0.07869419 -0.037032697 0.006134752 0.040041402
0.10887524 0.11416417 0.12414516 0.017139468 -0.10798866 -0.10498085 0.027776036 -0.04961776
0.1962737 0.030867616 0.13513236 -0.131902 -0.073586404 0.07621763 0.011378422 0.07669454
-0.0958746 0.10163078 -0.072232544 -0.11596606 -0.0168967 -0.0648609 0.049233813 0.14527115
-0.02453001 0.00586765 0.038205385 0.12342429 0.0075369086 -0.0018761154 -0.0551955 0.03610535
0.117230065 -0.11207962 0.040479284 -0.027775733 0.022210423 0.18886158 0.03944883 -0.056719642
0.29005098 0.06040504 0.061294675 0.0010533605 -0.12385211 0.09474811 0.00040925626 0.07149237
-0.04096019 -0.024667421 0.19098616 -0.077273905 -0.07288525 0.14089426 0.08952768 0.14579745
0.07881955 0.044882726 0.0035318625 0.0071405815 0.04873577 0.20260866 -0.0602558 0.042489585
0.056518897 -0.08198329 -0.109105386 -0.017354796 -0.04793121 0.1607371 -0.009889347 0.09326689
0.05651603 0.011027522 0.039883807 0.095509194 0.0848615 -0.14275922 0.061301187 0.008816487
-0.008326475 0.035732295 -0.026470324 0.22673781 -0.15977481 -0.0093246 -0.05426717 -0.049195148
-0.0957678 0.047718022 -0.03234544 -0.053230405 0.075059585 0.17876048 0.08639876 -0.028755708
0.14531067 0.034455534 0.08169522 0.0009830103 -0.049911678 0.014657306 -0.0018420448 0.020354602
-0.012052549 -0.03172032 -0.11106819 0.030573456 -0.061937187 0.08697591 -0.06935351 0.015934205
-0.042888127 -0.06328397 0.0797384 0.05569533 0.13419941 0.014304316 0.047774374 -0.09780533
0.058836903 -0.07600253 0.042307366 -0.0566772 -0.076461904 0.113497324 -0.0029865531 0.08121352
-0.11676252 -0.09709791 -0.13441283 -0.12792057 -0.026589446 0.07192237 0.07190711 0.0012773927
0.013774707 0.0999675 -0.014950227 -0.04891631 0.13306713 -0.05640866 0.007925159 0.1419412
-0.09318865 -0.14841382 0.15487364 0.2151326 0.027809434 0.053946804 0.16318615 0.009413472
-0.0037047095 -0.007877216 -0.09223997 0.05942445 0.16242969 0.29024416 0.13621692 0.12225316
0.009512051 0.21565893 0.03652731 -0.0833353 0.106125504 -0.0054838466 -0.03603757 0.105688326

bias f4 [8]
00000000: 7712 35bd cf59 e3bd 9d0b c8bd efac 4f3d
00000010: 5932 7ebd 2f9b 2e3e 33ea 173d 1939 75bd
-0.044207063 -0.11101114 -0.0976784 0.05070203 -0.062059734 0.17051385 0.037088584 -0.059868906
