src/rl/out_dir/models/exp68/value_net.pth (torch, 3575 bytes, 1 tensors)

weight f4 [1, 512]
0	0x3e8d44ce	0.27591556
1	0x3e3d10ce	0.18463442
2	0x3e19617b	0.14978592
3	0xbe2549ab	-0.16141383
4	0x3e966147	0.29371092
5	0x3eab8d48	0.33506227
6	0xbd8bf4b7	-0.06833785
7	0xbd007c88	-0.031368762
8	0xbe6aa7ce	-0.22915575
9	0xbda547ca	-0.08070333
10	0xbce0c3d3	-0.027437126
11	0x3dd976f3	0.10618391
12	0xbd862360	-0.06549716
13	0xbed2e122	-0.41187388
14	0x3e9e2def	0.3089442
15	0xbe3ba79d	-0.18325658
16	0xbdc28f1c	-0.09499952
17	0x3e46781d	0.19381757
18	0xbe110575	-0.14162238
19	0xbdf6a37e	-0.120429024
20	0xbec56502	-0.38553625
21	0x3e4ca95e	0.19986483
22	0x3e252857	0.1612867
23	0x3d0292ed	0.0318784
24	0xbd8968d6	-0.06709449
25	0x3e8ff9ef	0.28120372
26	0x3e1d5c14	0.15367156
27	0x3e90ff8e	0.28319973
28	0x3e98a15f	0.29810616
29	0x3e5a89b3	0.2134159
30	0x3e3f4bc0	0.1868124
31	0x3e9e2622	0.30888468
32	0xbe3f009a	-0.18652573
33	0x3e040951	0.12894179
34	0xbeafc40c	-0.3432926
35	0x3e84fbc0	0.2597332
36	0xbd9aeb67	-0.07564431
37	0xbe1a8937	-0.15091406
38	0x3e26cec2	0.1628981
39	0xbeba662d	-0.3640608
40	0x3e6b4569	0.22975697
41	0x3e5e3ece	0.21703646
42	0xbe7eb466	-0.24873504
43	0xbd5d5f96	-0.054046236
44	0x3e9cf223	0.30653486
45	0xbeb05f02	-0.34447485
46	0xbed0e904	-0.40802777
47	0x3e02c452	0.12770203
48	0x3cc8aab7	0.024495466
49	0xbe2729f7	-0.16324602
50	0xbe3570e1	-0.17718841
51	0xbd8619d0	-0.06547892
52	0x3ea91054	0.3302027
53	0x3dfeeda0	0.12447667
54	0xbe4f0f8d	-0.20220776
55	0x3daddb8c	0.08489141
56	0x3e56d813	0.20980863
57	0x3e756598	0.23964536
58	0x3e407a6e	0.18796703
59	0x3e2a22a4	0.16614777
60	0xbe181981	-0.14853479
61	0x3e3317a8	0.17489493
62	0xbe0e65fe	-0.13906094
63	0x3d8f788d	0.07005415
64	0x3e64dabd	0.22349067
65	0xbe186499	-0.14882125
66	0xbe50636f	-0.20350431
67	0x3e92340c	0.28555334
68	0xbeb726b4	-0.35771716
69	0x3ea344d4	0.3188845
70	0x3e4ae8e9	0.1981541
71	0xbdeae75c	-0.114699095
72	0x3e2ea975	0.1705683
73	0x3e61681e	0.22012374
74	0xbe230c48	-0.15922654
75	0x3e5d9254	0.21637851
76	0xbdf67171	-0.12033356
77	0xbd6caae9	-0.05778018
78	0x3e1185bb	0.1421117
79	0xbe86a5eb	-0.2629846
80	0xbe120cbc	-0.1426267
81	0xbecf36ee	-0.40471596
82	0x3e561eba	0.20910159
83	0xbdab4507	-0.08362775
84	0x3e86ecdc	0.26352584
85	0x3e85e239	0.26149157
86	0xbee7568f	-0.45183226
87	0xbe7daadc	-0.24772209
88	0xbdf8b7ee	-0.12144457
89	0xbe9eaa92	-0.3098951
90	0x3e12e97b	0.14346878
91	0x3e1cd299	0.15314712
92	0xbf1fa9c7	-0.62368435
93	0x3e688586	0.22707185
94	0xbe8893c0	-0.26675224
95	0xbec7f55c	-0.39054382
96	0xbe366264	-0.1781097
97	0xbd6a05ff	-0.057134625
98	0xbde41dd6	-0.11138503
99	0xbdaffb98	-0.085929096
100	0x3dc62833	0.09675636
101	0x3e2442bc	0.16041082
102	0x3e4f29c2	0.20230773
103	0xbeae67ac	-0.3406347
104	0x3e63c762	0.22244027
105	0xbe948b48	-0.29012513
106	0x3eaa7bee	0.33297676
107	0x3e0116f0	0.12606406
108	0xbe1903d2	-0.14942864
109	0xbe268b0b	-0.16263978
110	0x3e557082	0.208437
111	0x3e3085c7	0.17238532
112	0x3e5c5c0d	0.2151949
113	0x3e8fc22e	0.28077835
114	0xbe546335	-0.2074097
115	0x3e699913	0.228123
116	0x3e4d03a9	0.20020927
117	0x3e512c0a	0.20426956
118	0x3e99afda	0.30016977
119	0xbe5e7384	-0.21723753
120	0xbdf8ce93	-0.12148776
121	0x3e72a7f8	0.23696887
122	0xbe6e6b83	-0.232832
123	0x3e4677b6	0.19381604
124	0x3defe505	0.11713604
125	0xbeca59bd	-0.3952159
126	0xbeab81cc	-0.33497465
127	0x3de91c0c	0.11382303
128	0x3e80f421	0.25186256
129	0x3e053d33	0.13011627
130	0x3c95f344	0.018304475
131	0x3e26f9d9	0.16306247
132	0x3e4b3f11	0.19848277
133	0x3e57fd79	0.21092786
134	0xbdf2af2d	-0.118498184
135	0xbe34f88c	-0.17672938
136	0xbe82dafe	-0.25557703
137	0x3e041c32	0.1290138
138	0xbde82939	-0.113359876
139	0xbea2119e	-0.31654066
140	0xbe2a1340	-0.16608906
141	0x3e1a1899	0.15048446
142	0xbe218c39	-0.15776147
143	0x3e246297	0.16053234
144	0x3e44247f	0.19154547
145	0xbed12d0b	-0.40854678
146	0x3e308733	0.17239074
147	0x3dd2beb2	0.102902785
148	0x3e0c7a41	0.13718511
149	0xbe21370a	-0.15743652
150	0x3ebc96e2	0.36833864
151	0x3e8e289e	0.27765363
152	0x3e35f1b1	0.17767979
153	0x3e6f26d6	0.23354658
154	0xbed6f6ce	-0.41985172
155	0x3e912b20	0.28353214
156	0xbeb6b5e8	-0.35685658
157	0xbf2c1190	-0.672143
158	0xbd9048f0	-0.07045162
159	0xbe23daa0	-0.16001368
160	0x3e09fb88	0.13474858
161	0xbe04b243	-0.12958626
162	0x3e6015e0	0.21883345
163	0xbd2da32b	-0.042391937
164	0xbe7cc041	-0.24682714
165	0x3d9b7ac9	0.07591779
166	0x3e1c239f	0.15247963
167	0x3e85f9d5	0.2616717
168	0x3e52e816	0.20596346
169	0x3e64b3b1	0.22334172
170	0x3e66eb67	0.22550736
171	0x3e9e7910	0.30951738
172	0x3d395771	0.045249406
173	0xbca57761	-0.020198526
174	0x3eae7f57	0.34081528
175	0x3e3ed028	0.18634093
176	0x3dfbd48d	0.122964
177	0x3e59f993	0.21286611
178	0x3d4185ed	0.047246862
179	0x3e6e53d1	0.23274161
180	0x3ddda2be	0.10822056
181	0x3e0c4c3b	0.13700955
182	0xbe4bc524	-0.19899422
183	0x3e10196e	0.140722
184	0xbe4d2642	-0.20034125
185	0xbe489e00	-0.19591522
186	0x3e7e201f	0.2481694
187	0x3e50804d	0.20361443
188	0xbe10b2e2	-0.14130738
189	0x3df74663	0.12073972
190	0xbe21af5b	-0.15789549
191	0xbdd18351	-0.10230125
192	0x3e21886a	0.15774694
193	0xbeb0cff4	-0.34533656
194	0x3e780f40	0.24224567
195	0xbdbadfc9	-0.09124715
196	0xbe8e6b55	-0.27816263
197	0xbe64e6c7	-0.2235366
198	0x3dde70b6	0.10861342
199	0xbe690d02	-0.22758868
200	0x3e2f0f43	0.17095666
201	0xbe5d26fe	-0.21596906
202	0x3e023996	0.1271728
203	0x3de76aed	0.11299691
204	0xbef89744	-0.48552907
205	0x3e3400ee	0.1757848
206	0xbd773f4f	-0.06036311
207	0xbdac9203	-0.08426287
208	0x3e20b2ba	0.15693179
209	0x3e93b777	0.2885091
210	0xbe079f89	-0.13244452
211	0xbc95c450	-0.018282086
212	0x3e27c24d	0.16382714
213	0xbd121005	-0.03565981
214	0xbe24b54d	-0.16084786
215	0xbdcc5408	-0.09976965
216	0x3ec04d03	0.37558755
217	0xbdaa3383	-0.08310606
218	0xbe10fc2e	-0.14158699
219	0x3e712b22	0.2355161
220	0x3e14573e	0.14486405
221	0x3de5c578	0.11219305
222	0x3e7af822	0.24508718
223	0x3e0dfdb0	0.13866305
224	0x3e6165a4	0.22011429
225	0x3eb3983b	0.3507708
226	0xbe46f222	-0.19428304
227	0xbe0aa99b	-0.13541262
228	0x3e6b6998	0.229895
229	0xbdeb207f	-0.114808075
230	0x3de97721	0.11399675
231	0xbe1564af	-0.14589189
232	0x3e2248c8	0.15848076
233	0x3e181636	0.14852223
234	0x3eb344b1	0.35013345
235	0xbe69aead	-0.2282054
236	0xbe6ea97c	-0.2330684
237	0x3e81b4a8	0.25333142
238	0x3c2cd3f9	0.010548585
239	0x3de4aca8	0.11165744
240	0xbe373622	-0.17891744
241	0xbdeccb4c	-0.11562213
242	0x3e55ba84	0.20871931
243	0x3dac4322	0.08411242
244	0x3e246025	0.16052301
245	0x3e0ddd42	0.13853934
246	0xbe5a2a7d	-0.2130527
247	0x3e430a1b	0.19046824
248	0x3e1823d4	0.14857417
249	0xbe77db71	-0.24204804
250	0x3e7359cd	0.23764725
251	0x3e8c3370	0.27382994
252	0x3e139d27	0.14415418
253	0xbe7c8958	-0.24661767
254	0xbdfdbc1d	-0.123893954
255	0xbe0eefd6	-0.13958678
