src/rl/out_dir/models/exp68/value_net.pth (torch, 3575 bytes, 1 tensors)

weight f4 [1, 512]
0.46733376 0.33848688 -0.32514295 -0.16028681 0.4796429 0.5588257 0.5635274 0.7210431
0.25691006 0.44078052 -0.17570947 0.5648213 -0.17382663 -0.1748066 -0.1794862 -0.15210073
-0.19816321 0.576462 0.46933573 0.50943375 0.53329223 -0.40305075 0.44439954 0.32957774
-0.18062028 0.53804845 0.48897198 -0.18741967 -0.5694026 0.6010376 -0.23837131 0.44730452
0.5402044 -0.19746271 0.4950442 0.44037145 -0.19665961 0.51532567 -0.17437297 0.6441482
-0.22222912 -0.15823095 0.7272701 0.6485593 -0.17088307 -0.19653925 0.5285494 0.54440695
0.51623726 -0.5595915 -0.1807839 -0.18902618 0.6985216 -0.16525126 0.48480892 -0.15317622
0.534817 -0.14238739 0.63436437 0.4554371 0.75718063 -0.19286926 0.72043365 0.592637
0.98519915 -0.4239184 0.59001154 0.47881597 0.4588142 0.7853008 -0.22392504 0.3115199
0.99872524 0.76401997 -0.17416869 0.44240266 0.49867898 -0.157525 -0.25043127 -0.23016661
0.507199 0.5728714 0.8995684 0.52912176 0.61973876 -0.18842545 0.5746153 0.6231171
0.5764649 0.430456 0.64840597 0.5023234 0.54058385 -0.35783067 -0.31053594 0.52197385
-0.19062395 0.80873317 -0.18033884 0.38949314 -0.18127628 -0.66254306 -0.20484883 0.71110356
0.53820956 -0.17448273 -0.2361551 0.49038607 0.59225196 -0.22178915 -0.5018603 -0.41060743
-0.18842153 -0.1847263 -0.38279995 0.44846374 -0.16758083 -0.22632715 -0.57497317 -0.2145242
0.41836217 0.77260303 -0.17262663 0.84925103 -0.16505764 -0.58389556 -0.62396765 0.5625125
0.5851481 -0.18484536 0.6215712 -0.19215742 0.34878236 0.49849007 0.52503866 -0.58850807
0.4691765 0.6383932 0.4487367 0.815112 0.41540122 -0.14771722 0.55679834 -0.167622
0.5532 -0.18919615 0.78085196 -0.2347345 -0.2185193 -0.14421701 0.46416533 -0.44304544
0.59350413 0.7122643 0.45536226 0.5119516 0.50902855 -0.5133248 -0.1779827 0.5069698
-0.18858862 0.26411343 -0.16374415 0.482511 0.5532641 -0.18008444 0.2768005 0.5271759
-0.17221908 0.41129893 -0.1485473 -0.21843465 -0.49753958 0.5016075 0.66555697 -0.16743225
-0.18546303 0.36036518 0.4336009 0.418264 -0.2086871 -0.1987301 0.6490492 -0.206311
0.45184296 0.6415899 -0.50044996 0.51234883 0.6474897 0.3873127 -0.16849886 -0.16092807
-0.19918564 0.44841555 -0.558158 0.577434 0.7184765 0.55939263 -0.39078835 -0.17875795
0.5459109 0.5554114 0.3265016 -0.16772348 -0.2199747 -0.38414437 0.59931004 0.45490444
0.4035281 -0.24394377 0.5562713 -0.25400922 0.74451274 -0.18360515 0.4741087 0.45445198
0.5296766 0.4080361 -0.583091 0.39612862 0.5491298 0.78176177 -0.18453954 -0.19055659
0.33691272 0.4894205 0.49589556 0.48668173 -0.19317746 0.8658129 0.57040864 -0.20702767
0.3580945 -0.1440458 0.5408208 -0.3754259 0.56058806 -0.16171138 -0.5718181 0.7759504
0.40497133 -0.14847594 0.48352712 -0.18842141 -0.192252 0.5418656 0.47809583 -0.1977092
-0.344049 0.42428386 0.9980622 0.45342 0.3970132 -0.15164867 0.5931622 0.86466795
00000000: 5f46 ef3e 274e ad3e 2379 a6be 3a22 24be
00000010: c193 f53e 330f 0f3f 5543 103f 4896 383f
00000020: b789 833e fcad e13e 2fed 33be 2198 103f
00000030: 9cff 31be 8000 33be 3bcb 37be 4bc0 1bbe
00000040: 4ceb 4abe 0393 133f c64c f03e 406a 023f
00000050: d785 083f ab5c cebe 5688 e33e 6abe a83e
00000060: 86f4 38be 8bbd 093f 895a fa3e f1ea 3fbe
00000070: 5ec4 11bf 9add 193f 9c17 74be 1905 e53e
00000080: d64a 0a3f aa33 4abe 6f76 fd3e 5e78 e13e
00000090: 2361 49be 62ec 033f d48e 32be e5e6 243f
000000a0: 0890 63be 4b07 22be 602e 3a3f fb07 263f
000000b0: f9fb 2ebe 9641 49be 034f 073f 415e 0b3f
000000c0: 2028 043f 6341 0fbf 6a1f 39be 1490 41be
000000d0: 50d2 323f a037 29be e038 f83e 3ada 1cbe
000000e0: c4e9 083f 00ce 11be b465 223f 0d2f e93e
000000f0: 97d6 413f 857f 45be 576e 383f 0fb7 173f
00000100: 0336 7c3f d50b d9be ff0a 173f 5e27 f53e
00000110: b2e9 ea3e 7909 493f 9b4c 65be 897f 9f3e
00000120: 75ac 7f3f d096 433f 4759 32be 9a82 e23e
00000130: da52 ff3e 3c4e 21be 8738 80be ccb0 6bbe
00000140: cbd7 013f b3a7 123f 1d4a 663f 8674 073f
00000150: 33a7 1e3f 9af2 40be fd19 133f 9a84 1f3f
00000160: 3493 133f bb64 dc3e effd 253f 4498 003f
00000170: b463 0a3f 9535 b7be 91fe 9ebe 14a0 053f
00000180: ed32 43be 2309 4f3f bfaa 38be a56b c73e
00000190: 7da0 39be 6c9c 29bf e4c3 51be e20a 363f
000001a0: 1ac8 093f 9aab 32be a4d2 71be e213 fb3e
000001b0: d39d 173f b21c 63be eb79 00bf 233b d2be
000001c0: 93f1 40be e428 3dbe 5bfe c3be 0a9d e53e
000001d0: 4f9a 2bbe 4ec2 67be 7131 13bf 3bac 5bbe
000001e0: 9133 d63e 50c9 453f 09c5 30be 8468 593f
000001f0: df04 29be 2e7a 15bf 58bc 1fbf d200 103f
00000200: 44cc 153f 1a48 3dbe 4a1f 1f3f eac4 44be
00000210: 9a93 b23e 173a ff3e ef68 063f 77a8 16bf
00000220: e737 f03e bd6d 233f d1c0 e53e 2eab 503f
00000230: 78af d43e 2f43 17be 568a 0e3f 1aa5 2bbe
00000240: 849e 0d3f a3bc 41be eae5 473f 3e5e 70be
00000250: 86c3 5fbe a0ad 13be 14a7 ed3e dad6 e2be
00000260: e3ef 173f f456 363f 3e25 e93e 430f 033f
00000270: b24f 023f 4169 03bf 1941 36be c6c8 013f
00000280: 601d 41be e039 873e 8cac 27be af0b f73e
00000290: b7a2 0d3f 0e68 38be ccb8 8d3e 00f5 063f
000002a0: 335a 30be c695 d23e c91c 18be 55ad 5fbe
000002b0: 82bd febe 5969 003f f161 2a3f 5c73 2bbe
000002c0: 05ea 3dbe c981 b83e f000 de3e b326 d63e
000002d0: 12b2 55be e77f 4bbe 1728 263f 3143 53be
000002e0: f657 e73e 3c3f 243f 7d1d 00bf 4b29 033f
000002f0: e3c1 253f da4d c63e f78a 2cbe 54ca 24be
00000300: 52f7 4bbe b996 e53e 71e3 0ebf b7d2 133f
00000310: 13ee 373f 5b34 0f3f 6915 c8be 530c 37be
00000320: d1c0 0b3f 712f 0e3f 382b a73e b4bf 2bbe
00000330: 0c41 61be 92ae c4be 626c 193f 3ce9 e83e
00000340: 3c9b ce3e 65cc 79be cc67 0e3f 7f0d 82be
00000350: 6398 3e3f fd02 3cbe 60be f23e eead e83e
00000360: e398 073f 1cea d03e 7445 15bf 5fd1 ca3e
00000370: c593 0c3f 8a21 483f eff7 3cbe 4421 43be
00000380: d37f ac3e 5395 fa3e 06e6 fd3e 592e f93e
00000390: 50d0 45be eaa5 5d3f 4d06 123f 10ff 53be
000003a0: 2a58 b73e be80 13be 3b73 0a3f d337 c0be
000003b0: b382 0f3f ab97 25be ac62 12bf afa4 463f
000003c0: 6758 cf3e 140a 18be de90 f73e 8bf1 40be
000003d0: b5dd 44be b4b7 0a3f fac8 f43e 4874 4abe
000003e0: 3127 b0be bc3b d93e 0181 7f3f ab26 e83e
000003f0: 5045 cb3e ca49 1bbe 7ad9 173f e15a 5d3f
