src/rl/out_dir/models/exp75/action_net.pth (torch, 67189 bytes, 2 tensors)

weight f4 [32, 512]
-0.073077165 0.047039837 0.008766424 -0.10916618 -0.083947636 -0.018564232 0.0065308916 0.08070824
-0.04859232 0.08468219 -0.13838805 0.063481495 -0.09303886 -0.009120236 0.016708579 -0.051396266
0.10759221 -0.08074963 -0.06097854 0.10000056 0.10354524 0.019576555 -0.04194998 0.081688456
-0.10309948 -0.008446566 0.08251898 0.00015229452 -0.09026545 0.03833859 0.062339943 -0.0892231
-0.0871845 -0.095269926 0.024780307 -0.040628 0.0032684763 0.123545945 0.073562235 0.034129594
-0.04570081 0.15179434 -0.087762915 0.0139987655 -0.021073323 -0.08807696 0.04431315 -0.07363886
-0.102696925 0.11800399 -0.08845838 -0.16618687 0.07802848 -0.071346276 0.026994715 0.06622777
-0.0864504 -0.09168823 0.0783644 0.040558137 -0.11109317 0.06139128 0.09656792 -0.038457405
-0.0024875603 0.064080715 -0.0064096637 0.06891342 0.1011806 0.06924052 -0.08856891 0.09403575
0.025340661 -0.033027392 0.12425977 -0.032002095 0.04767449 -4.671441e-05 -0.01034774 0.06924863
0.014398958 0.10088101 0.02586919 0.020027174 -0.090307035 0.048055544 -0.06707355 0.043020107
0.11782589 -0.1134567 -0.027217457 0.11187718 -0.033876456 -0.032627773 0.12236433 0.0011579867
-0.058234233 -0.08115846 0.10496972 -0.000640953 0.12955466 -0.05963206 -0.043890826 -0.16649139
-0.012398153 -0.03836665 0.031128418 0.19388644 -0.13838534 0.0017528187 -0.049630266 0.093634665
-0.07014734 -0.030519366 -0.04113388 -0.13493836 -0.017770093 0.021543728 0.09908717 0.09496707
0.11800847 -0.11846843 0.109579496 -0.032290816 0.0836252 -0.09674902 0.046501756 -0.059986975
-0.046097815 -0.055597186 0.09822504 -0.014044033 0.008903274 0.085605636 -0.028021477 -0.0021167742
0.055202506 -0.08339659 0.030832894 0.04120462 -0.0021798727 0.12634057 -0.0014168127 -0.08202791
-0.120622255 0.0943323 0.04614542 0.049065024 -0.08305905 0.08576736 -0.06843819 -0.07153512
0.08819535 -0.10754222 0.042041965 0.008762253 -0.036379512 -0.023283796 -0.040852416 -0.021326924
-0.019823767 0.0045880894 0.041302804 0.07229998 0.12127324 0.005872098 -0.04601966 -0.050927848
0.023240808 0.022081556 0.03132113 0.07335549 -0.0049582366 -0.07967448 -0.054649353 0.028941963
0.009012542 0.07852397 -0.04813667 0.06504692 0.10731498 0.06673216 0.06553093 -0.060926873
0.01910707 -0.040505737 -0.03718083 0.054461986 0.17290272 0.046599973 -0.08026141 -0.12027002
0.07041013 -0.10843394 -0.0035691778 -0.10104758 0.025914678 -0.024228282 0.016899291 0.021926261
0.075909 -0.08077173 -0.004230095 0.13203764 0.033429295 0.08315326 -0.029554278 0.1369154
0.04279287 0.033311483 0.030400217 -0.0015870034 -0.04008133 -0.018929347 0.06085454 0.12354462
0.10472807 0.03856372 0.00949578 -0.044814 -0.05083813 -0.019117145 -0.028901897 -0.11436426
0.046624757 -0.008450658 -0.0133687705 -0.06069849 0.022772865 0.037707325 -0.13683896 -0.07893916
0.022021443 -0.06474662 -0.08592199 -0.10209407 0.07463081 -0.10153163 0.03374705 -0.028501397
-0.021796834 -0.10467755 0.009080381 -0.056531053 0.07787744 0.09176127 -0.04028203 0.10393295
-0.07331872 0.07963745 0.06885537 0.10026995 -0.07710001 0.029300373 0.03675851 0.035783038
00000000: 7ba9 95bd d8ac 403d 0ca1 0f3c 8592 dfbd
00000010: bdec abbd 0414 98bc 1701 d63b 5d4a a53d
00000020: be08 47bd db6d ad3d 99b5 0dbe 9602 823d
00000030: 288b bebd 0b6d 15bc 6ee0 883c e484 52bd
00000040: 4e59 dc3d 1060 a5bd a2c4 79bd 18cd cc3d
00000050: 870f d43d 035f a03c bed3 2bbd 474c a73d
00000060: d225 d3bd 7763 0abc b6ff a83d 40b1 1f39
00000070: 18dd b8bd ed08 1d3d 2b58 7f3d 9aba b6bd
00000080: ca8d b2bd e11c c3bd 1200 cb3c 8c69 26bd
00000090: ef33 563b a805 fd3d cca7 963d 79cb 0b3d
000000a0: c630 3bbd fa6f 1b3e 0bbd b3bd 145b 653c
000000b0: f6a1 acbc b161 b4bd b581 353d f8cf 96bd
000000c0: c452 d2bd 13ac f13d ab29 b5bd e42c 2abe
000000d0: 65cd 9f3d ff1d 92bd 0524 dd3c 6da2 873d
000000e0: e80c b1bd 0ac7 bbbd 847d a03d 4a20 263d
000000f0: d184 e3bd 6c75 7b3d 67c5 c53d 8385 1dbd
00000100: 5606 23bb c03c 833d 2808 d2bb 7b22 8d3d
00000110: c637 cf3d f9cd 8d3d 9e63 b5bd d195 c03d
00000120: 3897 cf3c bb47 07bd e87b fe3d a114 03bd
00000130: 5346 433d 37ef 43b8 9189 29bc 3ad2 8d3d
00000140: 9be9 6b3c b49a ce3d a0eb d33c 0710 a43c
00000150: e5f2 b8bd e4d5 443d db5d 89bd da35 303d
00000160: b34e f13d fd5b e8bd 25f7 debc dd1f e53d
00000170: 0ac2 0abd b3a4 05bd 269a fa3d 96c7 973a
00000180: 0587 6ebd 6836 a6bd 5dfa d63d a105 28ba
00000190: faa9 043e bf40 74bd dec6 33bd b87c 2abe
000001a0: 9f21 4bbc 5926 1dbd 0601 ff3c 2b8a 463e
000001b0: e3b4 0dbe d6be e53a 1b49 4bbd 88c3 bf3d
000001c0: 69a9 8fbd c003 fabc 007c 28bd 482d 0abe
000001d0: 9692 91bc 797c b03c 37ee ca3d 187e c23d
000001e0: 6dae f13d 949f f2bd 376b e03d 6043 04bd
000001f0: b043 ab3d 5a24 c6bd a078 3e3d e7b4 75bd
00000200: 10d1 3cbd e0b9 63bd 362a c93d f218 66bc
00000210: 0adf 113c 0252 af3d 4c8d e5bc 94b9 0abb
00000220: 061c 623d d5cb aabd 4495 fc3c 2dc6 283d
00000230: 32dc 0ebb 6c5f 013e 58b4 b9ba 40fe a7bd
00000240: cd08 f7bd 4b31 c13d fb02 3d3d 68f8 483d
00000250: dd1a aabd cca6 af3d 5229 8cbd 0181 92bd
00000260: c39f b43d 183f dcbd 3234 2c3d 8e8f 0f3c
00000270: af02 15bd a9bd bebc dd54 27bd cdb5 aebc
00000280: 7465 a2bc af57 963b 212d 293d 0312 943d
00000290: 1b5e f83d ba6a c03b 1c7f 3cbd b899 50bd
000002a0: 8263 be3c 61e4 b43c 964a 003d 673b 963d
000002b0: b478 a2bb 602c a3bd 00d8 5fbd b217 ed3c
000002c0: 57a9 133c 2dd1 a03d f52a 45bd 5237 853d
000002d0: f5c7 db3d dfaa 883d 1535 863d 758e 79bd
000002e0: 6e86 9c3c 58e9 25bd ed4a 18bd 8813 5f3d
000002f0: 690d 313e 9ddf 3e3d 1860 a4bd 2150 f6bd
00000300: 3033 903d 9d12 debd dee8 69bb 09f2 cebd
00000310: 054b d43c 647a c6bc 6270 8a3c b49e b33c
00000320: 2e76 9b3d a66b a5bd 9c9c 8abb e034 073e
00000330: 28ed 083d 424c aa3d d01b f2bc 8d33 0c3e
00000340: 9447 2f3d 9f71 083d e009 f93c ff02 d0ba
00000350: 522c 24bd b811 9bbc 9c42 793d f604 fd3d
00000360: ac7b d63d fef4 1d3d 3094 1b3c e38e 37bd
00000370: a53b 50bd 8f9b 9cbc acc3 ecbc cf37 eabd
00000380: 9af9 3e3d a174 0abc b008 5bbc fb9e 78bd
00000390: 298e ba3c ff72 1a3d 831f 0cbe dbaa a1bd
000003a0: 5066 b43c e099 84bd def7 afbd b216 d1bd
000003b0: 0ad8 983d d1ef cfbd 593a 0a3d c37b e9bc
000003c0: 468f b2bc 2f61 d6bd e1c5 143c 1b8d 67bd
000003d0: 357e 9f3d 55ed bb3d c5fe 24bd ccda d43d
000003e0: 2028 96bd f618 a33d 0b04 8d3d 555a cd3d
000003f0: 9ce6 9dbd 5607 f03c 1790 163d 3c91 123d

bias f4 [32]
0.082369894 -0.065212406 -0.14488682 0.016702332 0.0033790106 -0.033552393 -0.07953163 0.08207662
-0.06865483 -0.13623163 -0.13585961 0.0028875712 -0.10648005 -0.10555619 -0.06260152 -0.08160208
-0.105553135 -0.08762023 0.0005558344 -0.003162386 -0.04114424 -0.116616786 0.024643106 -0.08847369
-0.09001306 0.049200397 -0.049693484 0.018002007 -0.015081479 0.06701352 -0.04275199 -0.0041889707
00000000: 8cb1 a83d 158e 85bd 365d 14be 54d3 883c
00000010: 6472 5d3b 3c6e 09bd 7be1 a2bd c917 a83d
00000020: e79a 8cbd 4e80 0bbe c81e 0bbe 683d 3d3b
00000030: 3612 dabd d82d d8bd 3a35 80bd fe1e a7bd
00000040: 3e2c d8bd 3c72 b3bd 6ab5 113a 0840 4fbb
00000050: dd86 28bd c8d4 eebd 57e0 c93c b231 b5bd
00000060: c458 b8bd 5b86 493d 658b 4bbd f278 933c
00000070: 4f18 77bc 623e 893d b61c 2fbd a243 89bb
