src/rl/out_dir/models/exp75/value_net.pth (torch, 3573 bytes, 1 tensors)

weight f4 [1, 512]
00000000: 8b75 a9be 39c2 33be c1df 83bd 3e5e 723e
00000010: edfe 0d3e 3174 473e 250b 113e a877 bdbd
00000020: 4802 fcbd 5175 abbd 9edb 333e 2f5c 6d3e
00000030: 3eff 533e 0315 df3d 513b 49be 5912 54bd
00000040: b7ac 60bd 1a6f 5fbe 1a92 6dbe f29e 3a3e
00000050: 6b0a 123e a9eb 733e bf7e 613e 6ca4 84be
00000060: d66e 5ebe 3a37 0b3d 8775 d5bd 066e 6e3e
00000070: 53e2 82be 77ef b7bd 0d5a a6be 7846 5fbe
00000080: 0a2c 793e c095 f6bd 69b0 33be 7641 87be
00000090: fde8 8c3e 27f4 1f3e c16e 38be a273 683e
000000a0: 7f9b 37bd d43c 613e e4f7 2a3d 504c 5fbe
000000b0: 7d54 7f3e 9a8a 9d3e da83 5d3e 6af9 573e
000000c0: 1319 39be d906 5cbe 1168 86be 139a 473e
000000d0: 860c 8abd 226f 2dbe c28c 94bd 9065 e03d
000000e0: c3d0 0ebd 8b13 3f3e afdd 153e 23c8 50be
000000f0: b773 0d3e 6252 89be 2232 e53d e2ef 9ebe
00000100: a2ee 45be b274 6d3e c4a7 873e 7a64 8d3e
00000110: 526e 86be 3679 5cbe 903e 753d f7c2 953e
00000120: 05d7 bebd 77ad a13d ea7b 21be ea75 bbbd
00000130: 39aa 09be 4823 453d 440b b03d f7b3 6ebe
00000140: 66e9 32be ed7e 2fbe 750e 17be 8c65 89be
00000150: 34a7 5cbe ce9d 263e f77a dbbd ebbe 20be
00000160: 714e 843e 233a 603e e364 7a3d dcc2 59bd
00000170: e10c 45be dec1 653e 822f 14be fc9e 8bbe
00000180: 17d5 57be 7420 6bbe 8b7c a6be fc3b 59be
00000190: 1ca9 5a3e 5527 9ebe cb92 87be 27b0 3ebe
000001a0: 69b6 79be 5e46 74be fdfe 833e e19b b1bd
000001b0: 968f 953e 13d4 6fbd 9329 813e 9abc 9e3c
000001c0: a987 09be f6a3 a8be d662 d2bd b355 3e3e
000001d0: 2f71 3b3e 087a 32be 4825 753d 6cdb 14be
000001e0: efe1 583e 6a37 8ebe 1c73 573e e28e 8bbe
000001f0: f112 873d e30c 37be b291 4abe 32fd 90bd
00000200: 8be0 223e 9d75 44be df7e fdbd ef75 bc3d
00000210: 8afe 683e ae92 adbe 1f5a 693e 5551 503e
00000220: a053 163e 8d26 113e 181e 6b3e ba6f 1d3e
00000230: e1b2 a73d 79cd f53d dd80 0dbe 7739 e93d
00000240: f179 25be aba4 903e db03 aa3d aabb 61be
00000250: b7fe 3f3e aea8 123e 5a88 4abe c896 bd3d
00000260: ef72 2cbe f59d a03e bdf7 84bd 1c0a 3d3e
00000270: 3247 4fbe 0895 5dbe 4d0b 143e 4db9 763e
00000280: b63f 1ebe 221f 223e 72fc 323e 8e82 ce3d
00000290: 55f2 7f3e 80ba 3c3e 5351 66be 54d2 83be
000002a0: 01bb 2f3e 8b26 f6bd d7de 8f3e de15 9c3d
000002b0: 5b1d 4c3e b311 6a3e 85d4 6e3e e24f 8fbd
000002c0: aaaf 04be 46c1 653e ee0f 6ebe 87ea 303e
000002d0: a764 82be 42af 88bd ad9a 2b3e 2473 613e
000002e0: dce7 0abe c189 733e fed5 893e 07a0 3b3e
000002f0: 12aa 0cbe d326 08be 88f8 41be f125 d9bd
00000300: 60a7 89be 351a 82be 4e9d 913e d434 5e3e
00000310: 225c 8cbe 7257 1c3e 15be d23d 321f 5b3e
00000320: e1e4 e8bd f2a6 56bd 1cb7 1d3e 3295 f83d
00000330: ca92 33be c2fa 543d f0de abbd 3508 043e
00000340: a63a a43e 0629 76be 41e9 583e 76dc 473e
00000350: 3f54 87bd c620 49be bc8d 193b c2df 29be
00000360: 43bc 97be 477b 5b3e 8f58 413e 44bc 353e
00000370: 81ba b73e 9114 02be 93b4 39be 497d 32bd
00000380: a2ef 103c 1e24 65be 38aa 193e 9916 58be
00000390: ae78 aa3e a67a ebbd adac 463d e8b4 0c3e
000003a0: ee49 643e f3b0 533e d5da 2a3e 8e35 83bd
000003b0: faac 9bbe 8282 b03e 815c 753d 93c6 83be
000003c0: 2a5b 8f3e 15b8 78be 5b6d 333d e603 c0bd
000003d0: 811f f1bc db2d 81bd c21b bf3d 4532 253e
000003e0: a23f e33d beaa 31be 3430 193e c025 573e
000003f0: 6cc5 2d3e 8590 1e3e 90ce 25be d2c5 133e
-0.3309749 -0.17554559 -0.06439162 0.23668763 0.13866778 0.19477917 0.14164408 -0.09251338
-0.123051226 -0.08371986 0.17564246 0.23179697 0.20702836 0.108926795 -0.19651534 -0.05177531
-0.054852214 -0.21819726 -0.23200265 0.18224695 0.14261787 0.23820366 0.22021006 -0.25906694
-0.21721968 0.033988215 -0.10422807 0.23284158 -0.25563297 -0.08981221 -0.32490578 -0.21804225
0.24333206 -0.12040281 -0.17547764 -0.2641713 0.27521506 0.1562048 -0.18011 0.2270036
-0.044826027 0.2199586 0.041740313 -0.21806455 0.24934573 0.30769807 0.21632329 0.21091238
-0.18075971 -0.21486987 -0.2625127 0.19492368 -0.0674067 -0.16936925 -0.0725341 0.109568715
-0.03486706 0.18659799 0.14635347 -0.20388846 0.13813673 -0.26820666 0.11191203 -0.3104239
-0.19329312 0.23189047 0.26495183 0.2761572 -0.26256043 -0.21530613 0.059874117 0.2925031
-0.093183555 0.07894414 -0.15769926 -0.0915335 -0.13443841 0.04812935 0.08595899 -0.23310839
-0.17471847 -0.17138262 -0.14751609 -0.26835287 -0.21548158 0.16271135 -0.10716813 -0.1569783
0.25841096 0.21897177 0.06113137 -0.053164348 -0.19243194 0.22437236 -0.14471248 -0.27269733
-0.21077381 -0.22961599 -0.32516894 -0.21214288 0.21353573 -0.30889383 -0.26479182 -0.18621884
-0.2438599 -0.23854968 0.25780478 -0.0867231 0.2921111 -0.05855186 0.2522703 0.019377042
-0.13430656 -0.32937592 -0.10272758 0.18587379 0.18304895 -0.17429364 0.059850007 -0.14536828
0.21179937 -0.27776653 0.21040004 -0.27257448 0.0659541 -0.1787601 -0.19782141 -0.07079543
0.15905969 -0.19185491 -0.12377714 0.092021815 0.22753349 -0.3390097 0.22788285 0.20343526
0.14680338 0.14174862 0.22960699 0.15374652 0.08188415 0.120020814 -0.13818689 0.11387914
-0.16159798 0.28250632 0.083015166 -0.22044244 0.1874951 0.14322159 -0.19778576 0.09257275
-0.16840719 0.31370512 -0.06492565 0.18460888 -0.20242003 -0.21638882 0.14457436 0.24094124
-0.15453991 0.15832189 0.17479113 0.10083495 0.24994786 0.18430519 -0.2249196 -0.25746405
0.1716118 -0.1201907 0.280997 0.07621358 0.19933073 0.22858314 0.23323257 -0.06997658
-0.12957636 0.22437009 -0.23248264 0.17276965 -0.25467417 -0.06674053 0.16758223 0.22016579
-0.1356501 0.23783018 0.26921076 0.18322764 -0.13736752 -0.1329606 -0.18942463 -0.1060294
-0.2688551 -0.2541062 0.28440326 0.2169984 -0.27414042 0.15267733 0.102901615 0.21398619
-0.1137178 -0.052405305 0.15401882 0.12137832 -0.17536464 0.051996954 -0.08392131 0.12893756
0.32075995 -0.24039087 0.2118273 0.19517693 -0.066078655 -0.19641408 0.0023430428 -0.16589263
-0.2963582 0.21433745 0.18881439 0.17747599 0.3588448 -0.12703158 -0.1813529 -0.043576512
0.008846195 -0.22377059 0.1500634 -0.2110237 0.33295196 -0.11498003 0.04850452 0.13740885
0.22293827 0.2067297 0.1668504 -0.06406699 -0.30405408 0.3447457 0.05990267 -0.25737438
0.2799924 -0.24288972 0.04380546 -0.093757436 -0.029433968 -0.06307574 0.09331466 0.16132458
0.11096121 -0.17350289 0.14959794 0.21010494 0.16969842 0.15484817 -0.16192079 0.14430931
